Variational_Auto_Encoder/autoencoder.pth (torch, 227133 bytes, 16 tensors)

encoder.0.weight f4 [16, 3, 3, 3]
0	0x3e047a1d	0.12937208
1	0xbb884de5	-0.0041596764
2	0xbdc37cc2	-0.0954528
3	0xbd6d59c9	-0.057946954
4	0xbe282897	-0.16421734
5	0x3e3591e2	0.17731431
6	0xbcb24f49	-0.021766322
7	0x3d4e75b3	0.050405215
8	0x3c25f3a5	0.01012889
9	0xbe32bdd4	-0.17455226
10	0xbe386bd7	-0.18009888
11	0xbde79565	-0.113077916
12	0x3d99bb5c	0.07506439
13	0x3dcda28c	0.10040769
14	0xbe06baa4	-0.13157135
15	0xbdfd24c7	-0.1236053
16	0xbd0ee7c7	-0.03488901
17	0xbd411762	-0.04714144
18	0x3dcce172	0.10003938
19	0xbdbeaaa9	-0.093098946
20	0x3c683415	0.014172574
21	0x3ca271a0	0.019829571
22	0x3d3319b2	0.043725677
23	0xbd34fd34	-0.044186786
24	0x3c9ffe00	0.019530296
25	0xbde46ce6	-0.11153583
26	0xbcf5fc6a	-0.030027587
27	0x3d91c78c	0.07118139
28	0x3e171b9c	0.14756626
29	0x3ca48b89	0.020086067
30	0x3db04338	0.08606571
31	0x3de0f558	0.109842956
32	0x3e24b60f	0.16085075
33	0xbdc35244	-0.09537175
34	0xbd9368ad	-0.071977
35	0x3e03b583	0.1286221
36	0x3d0a9943	0.033837568
37	0x3c924b25	0.017858097
38	0xbdc2c077	-0.09509366
39	0x3970e7ba	0.00022974508
40	0xbcf3a693	-0.029742515
41	0x3e096228	0.1341635
42	0xbdc2cd3f	-0.09511804
43	0xbdb791bb	-0.08963343
44	0x3dbcfdaa	0.0922807
45	0x3d2cb887	0.042168166
46	0xbe108943	-0.14114861
47	0x3d908f45	0.070585765
48	0x3e2882c0	0.16456127
49	0xbcc6e200	-0.024277687
50	0x3e375864	0.17904812
51	0x3dd8b923	0.10582187
52	0x3dca412e	0.09875713
53	0xbd76556a	-0.06014005
54	0xbe22a395	-0.15882714
55	0x3dab1f9c	0.083556384
56	0x3dffc95f	0.1248958
57	0xbdc0aa05	-0.09407429
58	0xbcbfd595	-0.023417274
59	0x3dd4d8b1	0.10392893
60	0xbe3d5503	-0.1848946
61	0xbdd53a4e	-0.10411511
62	0x3e30161a	0.17195931
63	0x3c861321	0.016366543
64	0xbdfaba62	-0.12242581
65	0xbd151000	-0.036392212
66	0x3db9095d	0.09034989
67	0x3de8899c	0.11354372
68	0x3e470055	0.1943372
69	0x3d6870d6	0.056748234
70	0x3d54b181	0.051927093
71	0x3dda1cbd	0.10650013
72	0xbe4146a4	-0.18874604
73	0xbcfa1e47	-0.030532015
74	0xbe1bfe81	-0.15233804
75	0x3e3ab16a	0.1823174
76	0xbe1db973	-0.15402775
77	0xbd9e9772	-0.0774373
78	0xbe3c74a0	-0.18403864
79	0xbd2db920	-0.042412877
80	0xbd94149f	-0.07230496
81	0xbe100b12	-0.14066723
82	0x3da699fb	0.08134838
83	0xbdee810b	-0.11645707
84	0xbdf7f6b5	-0.121076025
85	0xbdf613ee	-0.1201552
86	0xbdc66d6b	-0.096888386
87	0xbe1497ee	-0.14511082
88	0x3c038cb0	0.008029148
89	0xbd84a0eb	-0.06476005
90	0xbe154294	-0.14576179
91	0xbc755ded	-0.014976007
92	0xbd16bc58	-0.036800712
93	0x3c217726	0.009855067
94	0x3c45b558	0.0120671615
95	0xbdb17a29	-0.08665878
96	0xbd8a9e74	-0.06768504
97	0xbdaffea6	-0.08593492
98	0xbda7c2b8	-0.081914365
99	0x3d218f30	0.039443195
100	0x3dee2c3c	0.11629531
101	0xbd5e9db1	-0.054349605
102	0x3cc7f5ad	0.02440914
103	0x3de216d7	0.110395126
104	0xbe45c46a	-0.19313207
105	0x3e3905f4	0.18068677
106	0xbe0294ad	-0.12752028
107	0x3e003bf9	0.12522878
108	0xbcd9bd77	-0.026579602
109	0xbd2bcdb2	-0.041944213
110	0x3dce91d4	0.10086408
111	0xbdb846bd	-0.08997867
112	0xbe2285b1	-0.15871312
113	0x3c63c687	0.013902313
114	0xbdf112b8	-0.117711484
115	0x3e59b425	0.21260126
116	0xbcd548e1	-0.026035728
117	0x3d3d172a	0.04616467
118	0xbc859dbd	-0.016310567
119	0xbdc58ca2	-0.09645964
120	0x3d381419	0.04494104
121	0x3ca6d82a	0.020366747
122	0xbd8dba12	-0.06920256
123	0x3dc73894	0.09727588
124	0x3e08a1a0	0.13342905
125	0x3d61f038	0.05516073
126	0xbc9b7a1b	-0.018979123
127	0xbd22c1ac	-0.03973548
128	0x3db7278a	0.08943088
129	0xbdce28ee	-0.100664005
130	0xbd4e718f	-0.050401267
131	0xbd0e58d8	-0.034752697
132	0xbcc5136e	-0.024057116
133	0xbdc3b26e	-0.09555517
134	0xbdc691d1	-0.09695781
135	0x3e2e64d1	0.17030646
136	0x3df76806	0.12080388
137	0x3e294f88	0.16534245
138	0xbe1258b4	-0.1429165
139	0xbe0b4e32	-0.13604048
140	0x3df3f3f3	0.11911764
141	0x3dbfb747	0.09361129
142	0xbde541d7	-0.111941986
143	0xbe3dcc18	-0.18534887
144	0x3d085cc0	0.03329158
145	0xbe05fc40	-0.13084507
146	0x3db550bb	0.08853289
147	0xbaf46ca1	-0.0018648097
148	0xbdb15610	-0.08658993
149	0xbe03b353	-0.12861376
150	0x3e33f92e	0.17575523
151	0x3dbabdb0	0.09118211
152	0xbdb93c7d	-0.0904474
153	0xbd520b41	-0.051280264
154	0x3d0a3016	0.033737265
155	0xbe2ec7d0	-0.1706841
156	0xbe3a8f03	-0.18218617
157	0x3dbe5bef	0.09294879
158	0xbe140143	-0.14453606
159	0xbdce53bd	-0.100745656
160	0x3bf5de11	0.007503279
161	0x3dbf2223	0.09332683
162	0xbd4413c3	-0.04787041
163	0xbc324a1c	-0.010881927
164	0x3e07664d	0.13222618
165	0xbe074793	-0.13210897
166	0x3e285b00	0.16440964
167	0xbd20c749	-0.039252553
168	0xbd813b9b	-0.06310197
169	0x3d3ce721	0.04611886
170	0xbdacd3f5	-0.08438865
171	0x3d87082e	0.06593357
172	0xbe2b9432	-0.16755751
173	0xbd00bc4d	-0.031429578
174	0xbbce1b98	-0.0062899105
175	0xbe270bc2	-0.16313079
176	0xbcf1dfde	-0.029525694
177	0x3e1966ef	0.14980672
178	0xbe4567c4	-0.19277865
179	0xbe4d4cd4	-0.20048839
180	0x3c56c36d	0.013108117
181	0xbe4785af	-0.1948459
182	0x3dfdb2f8	0.12387651
183	0x3d7b5715	0.061362345
184	0xbe1cb662	-0.15303949
185	0xbc0b9d9b	-0.008521463
186	0x3e2f812d	0.1713912
187	0x3db60a63	0.088887
188	0x3de4c363	0.111700796
189	0xbc6fa3d8	-0.014626466
190	0xbe3f90a2	-0.18707517
191	0xbc364291	-0.011124269
192	0xbe0efd36	-0.1396378
193	0x3e143de1	0.1447673
194	0x3e1d75d3	0.15376978
195	0x3e1e58a8	0.15463507
196	0x3dd1b5ed	0.10239778
197	0x3d0e417d	0.034730423
198	0x3d08d32f	0.033404525
199	0xbe13fb26	-0.14451274
200	0xbe60ee8e	-0.21966001
201	0x3ddea8c2	0.10872032
202	0x3dfe1ee1	0.124082334
203	0xbe2296cd	-0.15877838
204	0x3e2362f1	0.15955712
205	0xbde9e397	-0.114203624
206	0x3da4187d	0.08012483
207	0x3df3029c	0.11865732
208	0xbe3895e3	-0.18025927
209	0x3d2278b2	0.039665885
210	0xbe0595f0	-0.13045478
211	0x3c420077	0.011840931
212	0x3d3ac38e	0.04559665
213	0xbd853298	-0.065037906
214	0xbdd12e8b	-0.102139555
215	0x3e3380d4	0.17529613
216	0xbe067cb5	-0.1313351
217	0x3d9c4791	0.07630838
218	0xbc3299df	-0.010900944
219	0xbdd526f0	-0.10407817
220	0xbdf9d4b5	-0.12198774
221	0x3d7dad97	0.061933126
222	0xbe1e80d9	-0.15478839
223	0xbd5201ae	-0.051271133
224	0x3e0aa999	0.13541259
225	0x3e079c46	0.13243207
226	0xbd95d9e5	-0.07316951
227	0x3e0f06b6	0.13967404
228	0x3e297e18	0.16552007
229	0xbdff9f6f	-0.124815814
230	0xbdabcbad	-0.083884574
231	0xbdeeb5e3	-0.11655786
232	0xbdb32aae	-0.08748375
233	0xbe38e797	-0.18057095
234	0xbcd1aa04	-0.025593765
235	0x3c78a03b	0.015174921
236	0x3e0d5909	0.13803495
237	0xbd6c6049	-0.057709012
238	0x3cc511dc	0.024056368
239	0xbdab8569	-0.08375055
240	0xbd2fd8eb	-0.04293148
241	0x3ba56f58	0.0050486736
242	0x3daa47b5	0.08314458
243	0x3cf8b9c7	0.030362023
244	0x3ca7e058	0.020492718
245	0xbd595003	-0.05305482
246	0x3d093839	0.033500884
247	0x3e17f301	0.14838792
248	0xbcf7991b	-0.030224374
249	0xbcf0a4ca	-0.029375453
250	0x3df34c42	0.118797794
251	0xbd4a21a8	-0.049348503
252	0x3e514f1f	0.20440339
253	0x3da865f6	0.082225725
254	0x3e627271	0.22113968
255	0xbc981c9e	-0.018568333

encoder.0.bias f4 [16]
0	0xbdb498b2	-0.08818187
1	0xbd205365	-0.03914203
2	0xb9c3f542	-0.0003737603
3	0xbd681cc1	-0.056668047
4	0x3d9c02f8	0.07617754
5	0x3c2efb4f	0.010680034
6	0x3dc90f94	0.098174244
7	0xbde2f963	-0.11082723
8	0x3dac2e3d	0.08407257
9	0xbd25bef2	-0.040465303
10	0x3d5fd0a0	0.05464232
11	0x3d9891ec	0.074497074
12	0xbbb99c5a	-0.0056643905
13	0xbe3349bf	-0.175086
14	0x3cd3b332	0.025842283
15	0xbca66a92	-0.020314489

encoder.2.weight f4 [32, 16, 3, 3]
0	0x3d8ccef8	0.06875414
1	0xbd16bcfb	-0.03680132
2	0x3ccfda56	0.025372665
3	0x3bbf8f96	0.005845974
4	0xbcffb8f6	-0.031216126
5	0xbda42a12	-0.08015837
6	0xbc1f7556	-0.009732565
7	0xbb517fab	-0.0031966965
8	0x3d302b26	0.0430099
9	0xbd45d043	-0.048294317
10	0xbb23ee1d	-0.0025013753
11	0x3d4435b3	0.047902774
12	0x3dbd15a0	0.0923264
13	0x3cb00227	0.021485401
14	0x3d0c10ba	0.03419564
15	0xbbc16ead	-0.005903086
16	0xbc374c32	-0.0111876
17	0x3c4c3b96	0.012465378
18	0x3ca1e1db	0.019761017
19	0x3cf61e46	0.030043732
20	0xbd8beb4f	-0.06831991
21	0x3dc06d80	0.093958855
22	0x3dbb4615	0.091442265
23	0xbd2ace9a	-0.041700937
24	0x3ae25b0b	0.0017269565
25	0x3d988f91	0.07449258
26	0x3d8d1553	0.06888833
27	0xbd89d888	-0.06730753
28	0x3d523438	0.05131933
29	0x3d4f2dd6	0.050580822
30	0x3d070ff7	0.03297421
31	0x3db19bcd	0.08672295
32	0x3dae56e1	0.085126646
33	0xbcb03aa9	-0.021512346
34	0xba6116c6	-0.00085864624
35	0x3db65b1b	0.08904096
36	0xbd9a251d	-0.0752661
37	0xbdbb9291	-0.09158815
38	0x3b8ee0ab	0.0043602786
39	0xbdd4fc14	-0.103996426
40	0xbd5153ca	-0.051105298
41	0xbd91b1bd	-0.07113979
42	0xbd8e2776	-0.0694112
43	0x3b8457e8	0.0040387996
44	0xbd476c79	-0.048687432
45	0xbd20ff3c	-0.03930591
46	0xbcf2dd49	-0.029646533
47	0x3d8e327e	0.06943224
48	0xbd7e4c3c	-0.06208442
49	0xbce06d87	-0.027395977
50	0xbd010512	-0.031498976
51	0xbdc43bc8	-0.09581715
52	0xbda1279b	-0.07868882
53	0x3d7364df	0.05942237
54	0x3d25e87e	0.040504925
55	0xbd301a01	-0.04299355
56	0x3d467faa	0.048461594
57	0x3c036b65	0.00802121
58	0x3ccffdad	0.025389517
59	0xbdc006c1	-0.09376288
60	0xbd6727b9	-0.056434367
61	0xbdbd41e0	-0.0924108
62	0x3ad2b396	0.0016075249
63	0xbc549a1e	-0.0129761975
64	0x3c2a6ad6	0.010401448
65	0x3cc7c7d3	0.024387276
66	0x3d4469b6	0.047952376
67	0x3d21df84	0.0395198
68	0x3d942cc9	0.072351046
69	0x3d01416c	0.03155653
70	0xbb5dc459	-0.0033838956
71	0xbd8c42c4	-0.06848672
72	0xbdee94e9	-0.11649496
73	0xbdc53c94	-0.09630695
74	0x3cb3eb1f	0.0219627
75	0xbdac4a1b	-0.08412572
76	0x3b63fab8	0.0034786891
77	0xbddffb96	-0.10936658
78	0x3cdb81cd	0.026795292
79	0xbce5123d	-0.027962798
80	0xbc44c387	-0.012009508
81	0x3d8284bc	0.06372973
82	0xbc0d08ac	-0.008608025
83	0x3bb7b6f5	0.005606527
84	0x3c3e11e2	0.011600943
85	0x3da59d10	0.08086598
86	0x3c23d420	0.009999305
87	0x3c388bbd	0.011263785
88	0xbd7705aa	-0.060308136
89	0xbc0451bc	-0.008076128
90	0xbb297d4a	-0.0025862032
91	0xbd7095ba	-0.05873654
92	0xbd26766d	-0.040640283
93	0x3d503ecd	0.05084114
94	0xbc83ee58	-0.016104862
95	0x3c63e811	0.013910309
96	0xbdc590a7	-0.09646731
97	0x3d447992	0.0479675
98	0xbc95f1ed	-0.018303836
99	0xbd6be4c4	-0.057591215
100	0x3ccf9f40	0.025344491
101	0x3d8f4e68	0.06997377
102	0x3d9fffe4	0.07812479
103	0x3d8d0f7e	0.068877205
104	0x3bd68b5a	0.0065473737
105	0xbd289fb4	-0.04116793
106	0xbd4549a2	-0.048165925
107	0x3d84041a	0.06446095
108	0xbd4c673c	-0.04990314
109	0x3d128880	0.035774708
110	0x3c2ac5f6	0.010423174
111	0x3d379364	0.044818297
112	0x3da8853f	0.0822854
113	0x3d3ccd16	0.046094023
114	0xbc6e8fd7	-0.014560661
115	0xbd1b7b69	-0.03795949
116	0x3d8261ad	0.063662864
117	0x3cc4c430	0.02401933
118	0x3cb6b130	0.022301286
119	0x3d640c8e	0.055676036
120	0xbd802902	-0.062578216
121	0xbd8a859c	-0.06763765
122	0xbc92fdd6	-0.017943304
123	0x3bd2c26b	0.006431868
124	0xbd988f83	-0.07449248
125	0x3da93ad4	0.08263174
126	0xbc8ac3c5	-0.016939053
127	0xbd771c6d	-0.060329843
128	0xbd074a85	-0.03303005
129	0xbd369874	-0.044578984
130	0x3c513af9	0.012770408
131	0xbcd40f84	-0.025886305
132	0xbcea4dd8	-0.028601572
133	0x3ab1b2c9	0.001355731
134	0xbcd7a921	-0.026325764
135	0xbd142f4d	-0.036177922
136	0xbd330000	-0.043701172
137	0x3d70fe17	0.05883607
138	0xbd31d2e1	-0.043414
139	0xbb587ae3	-0.003303223
140	0xbdbadb96	-0.09123914
141	0x3d7ac390	0.06122166
142	0xbb204c12	-0.0024459404
143	0xbdac4873	-0.08412256
144	0xbd2a3e2b	-0.041563194
145	0xbbf447ab	-0.0074548326
146	0xbd66b533	-0.05632515
147	0xbda4d960	-0.080492735
148	0x3d1afe28	0.03784004
149	0x3d91c5b8	0.0711779
150	0xbd4221a0	-0.04739535
151	0x3d8d108c	0.06887922
152	0xbcd25ca0	-0.025678933
153	0x3d297b35	0.041377265
154	0x3b810550	0.003937401
155	0xbd304973	-0.043038797
156	0x3d6d781d	0.057975877
157	0xbc64a37b	-0.013954992
158	0xbd32fe71	-0.043699685
159	0x3da25448	0.079262316
160	0x3cd62b19	0.026143597
161	0xb933cd32	-0.00017147211
162	0x3d7471cd	0.05967884
163	0xbdcc46b3	-0.09974422
164	0xbc7bfaa8	-0.015379585
165	0xbdd20e92	-0.10256685
166	0xbc5df51a	-0.013547206
167	0x3d20be87	0.0392442
168	0xbd5ed604	-0.05440332
169	0xbc76e4a4	-0.015069161
170	0xbc957749	-0.018245356
171	0x3d2dfba3	0.042476308
172	0x3b669282	0.003518254
173	0xbd91bdd1	-0.07116283
174	0xbd81e0c9	-0.063417025
175	0xbd48d009	-0.049026523
176	0xbd2bd65e	-0.041952483
177	0x3d11cde6	0.03559675
178	0xbcc95447	-0.02457632
179	0x3d7a1ccd	0.061062623
180	0xbd230f6a	-0.039809622
181	0x3d575450	0.05257064
182	0xbb5345dd	-0.0032237687
183	0x3d794831	0.060859863
184	0xbd03698e	-0.032083087
185	0x3c5f0872	0.013612853
186	0xbd6d0be9	-0.057872687
187	0xbce938af	-0.028469412
188	0x3d65fd84	0.056149974
189	0xbcb17aa9	-0.021664934
190	0xbd899038	-0.06716961
191	0xbcafd7aa	-0.021465141
192	0x3d4ef081	0.05052233
193	0x3cc0ee4f	0.023551134
194	0xbcb9e6d1	-0.02269307
195	0x3ada4647	0.0016653024
196	0xbd64e0a9	-0.055878315
197	0x3d309ccc	0.043118283
198	0x3c570295	0.013123174
199	0xbc6a4278	-0.014298074
200	0x3d3a96c2	0.04555393
201	0x3d90f755	0.07078425
202	0xbd1c114e	-0.03810244
203	0xbcc24e8e	-0.023719098
204	0xbd2265c5	-0.039647836
205	0xbbfb52a4	-0.0076697636
206	0x3d185e1b	0.03719912
207	0xbdae6f2e	-0.085172996
208	0xbd84c335	-0.06482545
209	0xbdbd9957	-0.09257763
210	0xbcd35be0	-0.025800645
211	0x3ca63763	0.020290082
212	0xbce99ba7	-0.028516604
213	0xbc50e4f6	-0.012749901
214	0x395d4b3f	0.00021104234
215	0x3d17f50d	0.037098933
216	0xbc7009a1	-0.014650733
217	0x3c9be599	0.01903038
218	0x3da05e38	0.07830471
219	0x3c98f4a5	0.018671343
220	0xbd7cea60	-0.061746955
221	0x3ca0654d	0.019579554
222	0xbc36075c	-0.011110153
223	0x3ca9519d	0.020668799
224	0x3d82b6c7	0.06382518
225	0x3d0433b2	0.032275863
226	0xbd8b2100	-0.067934036
227	0xbccd5d9b	-0.025069049
228	0x3c3372c6	0.010952657
229	0xbd520ef5	-0.051283795
230	0x3d3b4483	0.045719635
231	0x3d6ba79c	0.05753289
232	0x3d0e789d	0.034782995
233	0xbd149e79	-0.036283944
234	0x3de82ac8	0.11336285
235	0x3c26e853	0.010187226
236	0x3c901493	0.017587936
237	0xbdcdbf40	-0.10046244
238	0xbc63b108	-0.013897188
239	0xbd291403	-0.04127885
240	0x3dbb067b	0.091320954
241	0x3dd167c8	0.10224873
242	0x3bd8ac9f	0.006612375
243	0x3d0ce9f6	0.03440281
244	0x3d58e7e3	0.05295552
245	0x3d910f6a	0.07083018
246	0x3d1fb414	0.038990095
247	0xbcb76732	-0.022388075
248	0xbd91baa7	-0.07115679
249	0x3d75eaa6	0.06003823
250	0xbcfec60b	-0.031100294
251	0x3d634ac4	0.055491224
252	0x3cb0b9da	0.021572996
253	0xbb57359c	-0.003283835
254	0xbd862681	-0.06550313
255	0xbd81679a	-0.063185886

encoder.2.bias f4 [32]
0	0xbcff4343	-0.031160003
1	0x3d3bdd20	0.045865178
2	0x3cb2dac6	0.021832835
3	0xbd2bac14	-0.041912153
4	0xbd69f704	-0.057120338
5	0x3c13796e	0.009001119
6	0xbc4bd04a	-0.012439797
7	0x3c63d93d	0.013906774
8	0xbbcda00f	-0.006275184
9	0x3cc2c60a	0.023776073
10	0xbc83a8e6	-0.016071748
11	0x3d39e404	0.04538347
12	0xbc0a3440	-0.008435309
13	0xbd6989c0	-0.057016134
14	0x3d9c5af6	0.07634537
15	0xbd867738	-0.06565708
16	0x3cc2028e	0.023682859
17	0xbd89c9e9	-0.067279644
18	0xbd50ec30	-0.051006496
19	0xbc3529bd	-0.011057314
20	0xbd8469e2	-0.06465508
21	0xbda60e13	-0.08108153
22	0xbb6da104	-0.0036259303
23	0xbc3e98b6	-0.011633089
24	0x3d7dce9a	0.06196461
25	0xbca76db7	-0.020438058
26	0x3d2c05a6	0.041997574
27	0xbd926883	-0.0714884
28	0xbd9cad5e	-0.07650255
29	0x3cbe31c1	0.023217084
30	0xbd0b6e4b	-0.03404073
31	0x3996c2ba	0.00028755312

encoder.4.weight f4 [64, 32, 3, 3]
0	0x3c7ae9e8	0.015314557
1	0xbd80471f	-0.06263565
2	0x3bc3982f	0.0059690694
3	0x3cd08bb5	0.025457243
4	0x3d41cf26	0.047316693
5	0xbb8df6c7	-0.0043323967
6	0x3cc9d850	0.024639279
7	0xbd7fc211	-0.062440936
8	0xbd838e5b	-0.064236365
9	0xbc29d7a4	-0.010366354
10	0x3d1b7d4b	0.037961286
11	0x3d4d0777	0.050055947
12	0xbc746fc9	-0.01491923
13	0x3c017449	0.00790126
14	0xbcec8e10	-0.028876334
15	0x3a8b4b83	0.0010627363
16	0xbd82e71c	-0.06391737
17	0xbc9fcbe9	-0.019506412
18	0x3d4d2334	0.0500824
19	0x3cfd4633	0.030917263
20	0x3c904a17	0.017613454
21	0x3d4e7251	0.05040199
22	0xbd7a96e3	-0.061179053
23	0xbc31667f	-0.01082766
24	0x3cc02feb	0.023460349
25	0xbd30bfa7	-0.043151524
26	0x3ce42655	0.02785031
27	0xbcf318e0	-0.029674947
28	0x3d48ac5a	0.048992492
29	0x3c6f964b	0.014623235
30	0x3d53f999	0.051751707
31	0xbd4c253b	-0.049840193
32	0x3b9cc546	0.004784259
33	0xbb6710ac	-0.003525774
34	0xbd069d65	-0.032864947
35	0xbc330404	-0.01092625
36	0xbd86f4a8	-0.06589633
37	0x3d407e09	0.046995196
38	0xbd2f37c1	-0.04277778
39	0x3cb8a552	0.022539768
40	0x3b02be80	0.0019949973
41	0xbbe85b08	-0.00709093
42	0xbd3e4e24	-0.04646124
43	0x3d17a4cd	0.0370224
44	0x3d116686	0.035498165
45	0x3d6cb156	0.05778631
46	0xbb5fe4fe	-0.003416359
47	0x3d291281	0.041277412
48	0x3d7b5c94	0.061367586
49	0xbd04818b	-0.032350104
50	0x3c564687	0.0130783385
51	0xbcb1595f	-0.02164906
52	0xbc9fc50b	-0.019503137
53	0x3d8a732b	0.06760248
54	0x3c2d2005	0.010566716
55	0x3a56d9ed	0.00081959256
56	0xbd1b12a6	-0.03785958
57	0x3d3b86eb	0.045782965
58	0xbc876c8f	-0.016531257
59	0x3cb4212a	0.02198847
60	0xbc5b9a9f	-0.013403564
61	0xbd691603	-0.056905758
62	0xbc9cbda4	-0.019133396
63	0xbb798ce3	-0.003807836
64	0xbcc82e62	-0.02443618
65	0xbce321ae	-0.02772602
66	0x3ca42b93	0.020040309
67	0x3d0ac2c2	0.03387714
68	0xbd658415	-0.056034166
69	0x3ce8b751	0.028407725
70	0x3bebde1c	0.0071981084
71	0xbc378d1d	-0.011203078
72	0xbca4f19a	-0.020134736
73	0xbad4aa3a	-0.0016225048
74	0x3d0e1341	0.03468633
75	0xbd3f8bdf	-0.04676425
76	0x3cd3159c	0.02576714
77	0x38028f29	3.1127744e-05
78	0x3d544ef7	0.05183312
79	0xbd60ab6d	-0.054850984
80	0xbcd1448e	-0.025545385
81	0x3ccf6dcc	0.02532091
82	0xbd6b613c	-0.057465777
83	0xbcfddb77	-0.030988438
84	0xbb908356	-0.0044101877
85	0xbd4f4f6a	-0.050612845
86	0x3d4c7b3c	0.049922213
87	0xbcd4a7cf	-0.025958924
88	0xbce73eba	-0.028228153
89	0xbd3b2139	-0.04568598
90	0xbbd8bc69	-0.006614257
91	0x3d2ce8b2	0.042214103
92	0xbd7ffb05	-0.06249525
93	0x3d0bb657	0.03410944
94	0x3cdc9401	0.026926043
95	0x3d34c265	0.0441307
96	0xbd7cd2b3	-0.061724376
97	0xbb13b4ed	-0.002253826
98	0xbce441aa	-0.027863342
99	0x3c4366f4	0.011926401
100	0x3d166dd3	0.03672583
101	0xbcdfa742	-0.027301434
102	0xbc8666a0	-0.016406357
103	0xbce677c9	-0.02813329
104	0xbd33e0c0	-0.04391551
105	0x3d12b23a	0.0358145
106	0xbd276e9a	-0.040876962
107	0xbcf316ac	-0.029673897
108	0xbaa38756	-0.0012476246
109	0xbc9e5f47	-0.019332541
110	0xbcaf7323	-0.021417206
111	0xbba92c03	-0.0051627173
112	0xbcfe0a48	-0.031010762
113	0x3ce3907b	0.027778855
114	0x3cf00c0f	0.029302625
115	0xbcc52a0e	-0.024067905
116	0x3d14721a	0.03624163
117	0x3d1d6e1e	0.038435094
118	0xbcd309fa	-0.025761593
119	0xbcbeecea	-0.023306329
120	0x3d3d616c	0.046235487
121	0xbd09d110	-0.033646643
122	0x3d418da5	0.047254223
123	0x3cfd092f	0.030888168
124	0x3c78a35e	0.0151756685
125	0x3ce1a2d5	0.027543465
126	0x3bc96859	0.0061464724
127	0x3c336029	0.010948219
128	0x3bbbf665	0.0057361596
129	0x3a0d99c9	0.0005401639
130	0x3af4e078	0.001868262
131	0x3cd42aaf	0.02589926
132	0xbbfc3a65	-0.007697391
133	0xbd34e8e0	-0.0441674
134	0x3d43dce7	0.04781809
135	0x3c3ce1ef	0.011528476
136	0xbd4fce35	-0.050733764
137	0xbd7ec5d2	-0.062200375
138	0xbd3c0a9a	-0.045908548
139	0xbd053866	-0.03252449
140	0xbd4d493b	-0.050118666
141	0xbd3216e7	-0.043478873
142	0xbd095c6d	-0.03353541
143	0xbb7edd10	-0.0038889088
144	0x3d861290	0.06546509
145	0x3d648161	0.055787448
146	0x3d4326c7	0.047644403
147	0x3cb9d2ef	0.022683589
148	0xbae176e6	-0.0017201572
149	0x3cd2ca20	0.025731146
150	0xba6a5655	-0.0008939256
151	0x3c6f012f	0.014587685
152	0x3b795e39	0.0038050546
153	0x3c1e4de8	0.009662129
154	0xbcc58235	-0.02410994
155	0x3cee1db2	0.029066894
156	0xbc321362	-0.010868879
157	0x3d88b168	0.066744626
158	0xbcca0a86	-0.024663221
159	0xbd034914	-0.032052115
160	0xbd165e9c	-0.03671132
161	0xbd76d89f	-0.06026518
162	0x3d53abeb	0.051677626
163	0x3cbab5ff	0.02279186
164	0xbc26a08c	-0.010170113
165	0x3d146780	0.036231518
166	0x3d2f966b	0.04286806
167	0xbd3bd50d	-0.045857478
168	0x3d2dab0d	0.042399455
169	0x3d20ddec	0.03927414
170	0x3cc0d97f	0.02354121
171	0x3ce4f55f	0.027949033
172	0x3d7284d3	0.059208702
173	0x3d60cabb	0.05488084
174	0x3d83338e	0.06406318
175	0xbcdf14ae	-0.02723154
176	0xbcb8928b	-0.022530815
177	0x3c51c821	0.012804062
178	0x3c02b97f	0.007978796
179	0xbc9ad127	-0.01889856
180	0x3d2228c2	0.03958965
181	0x3b9b5d2b	0.004741331
182	0xbce37833	-0.027767276
183	0xbd21872a	-0.039435543
184	0xbd4e6f68	-0.050399214
185	0xbc405f03	-0.011741403
186	0x3c85f288	0.016351
187	0x3b5359be	0.0032249535
188	0x3c8403fe	0.016115185
189	0xbd6b304b	-0.057419103
190	0x3d326f96	0.043563448
191	0xbc9e8816	-0.019352
192	0xbc3c7f62	-0.01150498
193	0xbcc7788b	-0.024349472
194	0x3cc3917d	0.023873085
195	0xbc7fcac6	-0.01561231
196	0x3d3baee6	0.045821093
197	0xb9c6beb1	-0.0003790758
198	0x3c86eab7	0.016469343
199	0x3c9c1f24	0.019057818
200	0xbbcf58d5	-0.0063277283
201	0x3d5a9ef6	0.053374253
202	0x3cc9cd4f	0.024634032
203	0x3d239864	0.039940253
204	0xbd522dd1	-0.051313225
205	0xbd1494d3	-0.036274742
206	0x3d65b791	0.056083266
207	0x3d0ca5b8	0.03433773
208	0x3ca01151	0.019539507
209	0x3d374957	0.044747677
210	0xbd569737	-0.052390303
211	0xbd41cd90	-0.04731518
212	0x3bb096cf	0.0053890715
213	0x3d00b330	0.031420887
214	0xbc53be24	-0.012923751
215	0xbd1ce765	-0.038306613
216	0xbd502299	-0.050814245
217	0x3d0ccf41	0.03437734
218	0xbd4a771d	-0.04943
219	0xbcccf152	-0.025017414
220	0xbce2609b	-0.027633956
221	0x3d2c3fab	0.042052906
222	0x3cef8a8e	0.029240873
223	0xbb8abf73	-0.0042342483
224	0xbcce3601	-0.025172235
225	0x39e37d78	0.00043390295
226	0xbcc3a083	-0.023880249
227	0x3ce54fc2	0.027992133
228	0xbb895ae5	-0.0041917437
229	0x3d0657b0	0.03279847
230	0xbd00a618	-0.0314084
231	0x3d3c3f51	0.04595882
232	0xbc847cc8	-0.016172782
233	0xbc7faded	-0.015605432
234	0xbd7146a0	-0.058905244
235	0x3d34d744	0.044150606
236	0xbcc814da	-0.024424005
237	0x3cae7b8d	0.021299148
238	0xbcc48fe4	-0.023994394
239	0xbcc6382f	-0.024196712
240	0xbd0f1458	-0.03493151
241	0xbd78e6bc	-0.06076692
242	0xbcf02247	-0.02931322
243	0xbcc0b3d5	-0.02352325
244	0xbd7c1a40	-0.06154847
245	0x3c06116e	0.0081828665
246	0xbd0c5fb3	-0.034270953
247	0x3d092f5e	0.03349244
248	0xbd6f1be5	-0.05837621
249	0xbd25fc88	-0.040524036
250	0x3ccf0d11	0.025274785
251	0xbc3f9611	-0.011693493
252	0xbd34cb3f	-0.044139143
253	0xbd1c9801	-0.0382309
254	0xbc8219a2	-0.015881363
255	0xbb12b8e1	-0.0022388028

encoder.4.bias f4 [64]
0	0xbc9948bb	-0.018711438
1	0xbd4c4817	-0.049873438
2	0xbbd3c0a8	-0.0064621754
3	0xbd16ecbc	-0.03684686
4	0xbce288b8	-0.027653083
5	0xbc848412	-0.016176257
6	0xbd2bb966	-0.041924857
7	0x3c1e2106	0.009651428
8	0xbc35f609	-0.011106023
9	0xbc891389	-0.016732948
10	0xbcfe6d03	-0.03105784
11	0xbd624228	-0.055238873
12	0xbd29ddc2	-0.04147125
13	0xbd002a02	-0.03129006
14	0x3bb33e0f	0.0054700444
15	0xbd6067ef	-0.05478662
16	0x3d31e9dc	0.043435916
17	0x3ca49757	0.020091696
18	0xbc3de060	-0.01158914
19	0xbc365926	-0.011129653
20	0x3c81ff11	0.015868695
21	0x3d91661a	0.070995525
22	0x3cfe08f1	0.031010123
23	0xbd19864f	-0.037481602
24	0x39c19431	0.0003692224
25	0xbd78eea2	-0.060774453
26	0xbcb2a3a7	-0.021806551
27	0xbb0f7910	-0.0021892227
28	0xbbdd1f3a	-0.0067481073
29	0xbc091dd3	-0.008368927
30	0x3c814947	0.015782012
31	0x3d0171f2	0.031602807
32	0xbd851532	-0.06498183
33	0x3cec465b	0.028842142
34	0x3ccd78e1	0.025082054
35	0x3c86f6c1	0.016475083
36	0xbc2a416c	-0.010391574
37	0xbc8a9ef3	-0.016921496
38	0xbd35e849	-0.044410978
39	0x3d86b364	0.06577185
40	0xbc614548	-0.013749428
41	0xbcfebb06	-0.03109504
42	0x3c8c5bac	0.017133556
43	0x3d302eb5	0.043013293
44	0xbca3f874	-0.020015933
45	0xbc85d319	-0.01633601
46	0xbb78f523	-0.003798791
47	0xbd62e7b0	-0.055396736
48	0xbc9af02a	-0.018913347
49	0xbcf52a24	-0.02992732
50	0xbc81e75b	-0.01585739
51	0x3d931f7e	0.07183741
52	0xbd1f8aaa	-0.0389506
53	0x3c33fa0a	0.010984907
54	0xbd7da1b5	-0.061921794
55	0xbc8f6476	-0.017503958
56	0x3c53f2af	0.012936278
57	0xbc3f5494	-0.01167788
58	0x3ce2d33b	0.027688613
59	0xbcff4858	-0.031162426
60	0x3d1080a3	0.035278928
61	0xbd061681	-0.032736305
62	0xbbc6fcd6	-0.006072621
63	0x3ca9674d	0.02067914

conv_mu.weight f4 [64, 64, 1, 1]
0	0xbbedee79	-0.007261094
1	0x3cb136cc	0.021632574
2	0x3db0f3b5	0.086402334
3	0xbe29c5fc	-0.16579431
4	0x3c9d44cb	0.019197842
5	0x3dc6e890	0.097123265
6	0xbe072047	-0.13195907
7	0xbdcfb8dd	-0.10142682
8	0xbd6f1c8d	-0.058376838
9	0x3db9e393	0.090766095
10	0xbdc6d7f0	-0.097091556
11	0x3d752f15	0.059859354
12	0xbd829c92	-0.0637752
13	0x3cfe9538	0.031077012
14	0x3bdd9ef2	0.0067633325
15	0xbdb6b0e4	-0.08920458
16	0xbe046372	-0.1292856
17	0xbde81fde	-0.11334203
18	0xbd9c3b7e	-0.07628535
19	0x3d25e3cf	0.04050046
20	0x3d095ae2	0.03353394
21	0x3cef4776	0.02920888
22	0xbde3c1f4	-0.11120978
23	0x3d80ddc6	0.062923
24	0xbd816a4d	-0.063191034
25	0xbd422a5c	-0.04740368
26	0x3dc4674f	0.09590017
27	0x3dbed826	0.09318571
28	0xbcf2977e	-0.029613253
29	0xbbdcb028	-0.0067348666
30	0xbe0c2be0	-0.13688612
31	0xbd05b0d4	-0.03263934
32	0xbd2c6d40	-0.042096376
33	0xbd7fd7ae	-0.062461548
34	0x3d7f93c8	0.062396795
35	0xbd929afd	-0.07158468
36	0xbd877035	-0.06613199
37	0xbdb5483a	-0.08851667
38	0xbbbc273e	-0.0057419827
39	0xbd9b7ae3	-0.07591798
40	0x3cefe097	0.029281897
41	0x3bf21337	0.0073875445
42	0xbd82cac8	-0.06386334
43	0x3d8ab200	0.06772232
44	0xbdb08732	-0.086195365
45	0x3bd5fb13	0.0065301745
46	0x3c785b4b	0.015158485
47	0x3d886613	0.06660094
48	0xbc498d7c	-0.012301799
49	0xbc40904b	-0.011753152
50	0xbccfe0f4	-0.02537582
51	0x3e15b52f	0.14619897
52	0x3cb19999	0.021679686
53	0x3d88a412	0.06671919
54	0xbdf64c64	-0.12026289
55	0x3ca4f93b	0.020138374
56	0xbde9da4e	-0.114185914
57	0xbda6511d	-0.0812094
58	0xbd617ad4	-0.05504878
59	0x3defba58	0.11705464
60	0x3dd8a36e	0.10578047
61	0x3de838ae	0.11338936
62	0x3cc9bbad	0.024625624
63	0x3c6ce24e	0.014458252
64	0x3e00828a	0.12549797
65	0xbda987b8	-0.082778394
66	0x3deac56e	0.11463438
67	0xbd3aeab4	-0.045633987
68	0x3c481fc1	0.012214602
69	0xbd27b2d2	-0.04094202
70	0x3d17a753	0.037024807
71	0x3ba9246b	0.005161812
72	0xbdc34bc1	-0.09535933
73	0xbd6f14a0	-0.05836928
74	0x3e0b8ae8	0.13627207
75	0x3e1c3e06	0.15258035
76	0x3e20258f	0.15639327
77	0xbdc16f45	-0.09445051
78	0xbd88c3fb	-0.06678005
79	0xbd160ca1	-0.036633138
80	0x3e09e68b	0.13466851
81	0xbd22fe1b	-0.039793115
82	0x3d8e1354	0.0693728
83	0x3d020957	0.03174719
84	0xbd963719	-0.07334728
85	0xbdcf5dc4	-0.10125306
86	0xbd6fdcba	-0.05856011
87	0x3d0ba3e3	0.03409184
88	0x3d9feec9	0.078092165
89	0xbd6837d5	-0.05669387
90	0xbdb547e1	-0.088516004
91	0xbd33d624	-0.043905392
92	0x3dc84a15	0.09779755
93	0x3c10338d	0.008801353
94	0x3e0590b1	0.13043477
95	0xbdc0e034	-0.09417763
96	0x3da7e2b9	0.08197541
97	0xbd90fc83	-0.07079413
98	0xbd9dbcbe	-0.07702015
99	0x3d79cc5b	0.060985904
100	0xbd7c7e18	-0.06164369
101	0xbcac3a09	-0.021023767
102	0x3e07f757	0.13277946
103	0xbda09d0b	-0.078424536
104	0x3d147a01	0.036249164
105	0xbc2ee668	-0.01067505
106	0x3e00f3dd	0.12593026
107	0x3d2b5176	0.041825734
108	0x3d47e98b	0.04880671
109	0x3d1739cd	0.036920357
110	0x3e0cf488	0.13765156
111	0x3d2a463d	0.04157089
112	0xbd9b42a6	-0.075810716
113	0x3d837272	0.06418313
114	0xbda1fa7b	-0.079091035
115	0x3d28a769	0.04117528
116	0x3c413ee3	0.0117947785
117	0x3d4d7c49	0.050167356
118	0x3d13e5e7	0.036107924
119	0x3aab6364	0.0013075885
120	0x3c92511f	0.017860947
121	0xbd61a533	-0.055089187
122	0x3b8de287	0.0043299827
123	0xbd139915	-0.036034662
124	0xbd229676	-0.039694272
125	0xbd55a4d2	-0.052159138
126	0xbdc61470	-0.09671867
127	0xbdae5c73	-0.08513727
128	0xbd947dfc	-0.07250592
129	0x3b82c07c	0.003990231
130	0x3d4fdfa0	0.050750375
131	0xbd083319	-0.033251856
132	0xbd6c32d6	-0.05766567
133	0x3d5f969f	0.054587003
134	0x3e003e37	0.12523733
135	0x3bc3684c	0.005963361
136	0x3d042495	0.03226145
137	0x3d7870d2	0.06065447
138	0xbcf222de	-0.029557642
139	0x3b8d4f56	0.004312436
140	0xbd474b95	-0.048656065
141	0xbc77f212	-0.015133398
142	0x3c7a763b	0.015286977
143	0x3d96dc65	0.07366256
144	0x3da58d41	0.08083583
145	0x3dbab2db	0.09116145
146	0x3dffeeed	0.12496743
147	0x3dd057f0	0.10173023
148	0xbda9ff17	-0.08300608
149	0x3cc4f939	0.02404462
150	0x3d9c4305	0.076299705
151	0x3da68894	0.08131519
152	0x3cbe8ff7	0.023262007
153	0xbda776b4	-0.08176938
154	0xbd1157fe	-0.035484307
155	0xbd1832c7	-0.0371578
156	0x3dc54a0a	0.096332625
157	0xbdf39f7a	-0.11895652
158	0xbd92b379	-0.07163138
159	0xbd70bd67	-0.05877438
160	0x3ceda112	0.029007468
161	0x3e01d7c5	0.12679966
162	0x3cb38941	0.021916034
163	0x3db26f7f	0.087126724
164	0xbdc80dbd	-0.09768245
165	0xbde826a6	-0.113354966
166	0xbd6828c0	-0.056679487
167	0xbd836e38	-0.06417507
168	0xbd2381e6	-0.039918803
169	0x3dfb51a4	0.12271431
170	0xbd12d227	-0.03584495
171	0xbc36169f	-0.011113792
172	0x3d276e63	0.040876757
173	0x3d195f88	0.03744462
174	0x3ddd818c	0.10815725
175	0x3e0d8bbc	0.13822836
176	0xbddfb380	-0.10922909
177	0x3b6dc05e	0.003627799
178	0xbde4663a	-0.11152311
179	0xbe165548	-0.1468097
180	0x3e083187	0.13300143
181	0x3e078e25	0.13237818
182	0xbafb02be	-0.0019150598
183	0xbd8db934	-0.0692009
184	0xbc06b6f4	-0.00822233
185	0x3d0e22dd	0.034701217
186	0xbd126956	-0.035744987
187	0xbd0ea0ad	-0.0348212
188	0xbdbdcfc8	-0.09268147
189	0x3d9b7310	0.07590306
190	0xbd56278c	-0.05228381
191	0x3e00e320	0.12586641
192	0x3dc941e4	0.09827021
193	0xbdd7c32c	-0.10535273
194	0x3d8f35df	0.06992697
195	0x3d354b1f	0.044261094
196	0xbd81aad7	-0.06331413
197	0x3d2d1174	0.042252973
198	0x3de8172b	0.11332544
199	0xbd280dbc	-0.041028723
200	0xbcdb7155	-0.02678744
201	0x3dc45c23	0.09587886
202	0xbdead5f3	-0.11466589
203	0x3df47c1e	0.11937736
204	0xbd9aa7d7	-0.07551544
205	0xbd03b1bc	-0.032151923
206	0xbd4396f4	-0.047751382
207	0x3d521453	0.051288914
208	0xbc94527a	-0.018105734
209	0x3df9ad58	0.12191266
210	0x3d9c227a	0.076237634
211	0xbd286bd9	-0.041118477
212	0x3be697ea	0.0070371525
213	0xbdaad425	-0.083412446
214	0x3d556f0f	0.052107867
215	0x3c51a9fd	0.012796876
216	0xbd54bf1d	-0.051940072
217	0x3db2766e	0.08713995
218	0x3c83c678	0.016085848
219	0x3dad5f03	0.08465388
220	0x3d09737d	0.033557404
221	0xbd2105df	-0.03931224
222	0x3d09909d	0.03358518
223	0x3d5715e3	0.052511107
224	0xbc527e8f	-0.012847557
225	0xbae17e54	-0.0017203786
226	0xbd56b8db	-0.052422386
227	0x3dda94aa	0.10672887
228	0x3dbcb032	0.09213294
229	0xbe03ff33	-0.1289032
230	0xbc1c4c4d	-0.009539676
231	0x3b39c456	0.0028345785
232	0x3ddc78e0	0.107652426
233	0xbc930e88	-0.017951265
234	0x3de0f6b9	0.109845586
235	0x3dfbd9c7	0.12297397
236	0xbd654e5d	-0.055982936
237	0xbd9314bc	-0.07181689
238	0x3d08a48c	0.03336005
239	0x3da15426	0.07877378
240	0x3dd6ab90	0.10481942
241	0x3c7c99ff	0.015417575
242	0x3df4087c	0.11915681
243	0xba87e4de	-0.001036789
244	0xbd487d91	-0.048947874
245	0x3dd4b8e1	0.10386825
246	0xbb96a032	-0.0045967335
247	0x3e045860	0.12924337
248	0xbd5219a5	-0.051293988
249	0x3a30468f	0.0006724381
250	0xbcac910a	-0.021065254
251	0x3da6ac88	0.081383765
252	0x3c365731	0.0111291865
253	0xbd58a62e	-0.052892856
254	0x3d9e3fcc	0.07727012
255	0xbdcc711a	-0.0998251

conv_mu.bias f4 [64]
0	0x3d5816ec	0.052756235
1	0xbe00ff9a	-0.12597504
2	0xbd968a1f	-0.07350563
3	0xbdc53d3e	-0.09630822
4	0x3e0c355e	0.13692233
5	0xbdad9ee3	-0.08477571
6	0xbd94b56f	-0.07261168
7	0x3d99bbfc	0.07506558
8	0x3e0e3c08	0.13890088
9	0x3e181ed4	0.1485551
10	0x3d0991f1	0.033586446
11	0x3e24ec76	0.16105828
12	0xbdb9e8c1	-0.090775974
13	0x3db4dc1c	0.08831045
14	0xbd0f1090	-0.034927905
15	0x3dc020bb	0.09381243
16	0xbd8b3caf	-0.06798684
17	0xbdda171e	-0.106489405
18	0x3d9fbd72	0.07799806
19	0x3de54d9e	0.11196445
20	0x3d1c15b6	0.038106643
21	0x3dfdf389	0.12399966
22	0x3dbcb7a2	0.09214713
23	0x3da18288	0.07886225
24	0xbd8f626b	-0.070011936
25	0xbd5f1f8f	-0.054473456
26	0x3e116826	0.14199886
27	0x3df28afe	0.11842917
28	0x3e1bdbed	0.15220614
29	0x3d77a365	0.06045856
30	0xbded298b	-0.11580189
31	0x3d9e363c	0.07725188
32	0x3df9b5d5	0.12192885
33	0xbdf042b4	-0.117314726
34	0x3e1159f1	0.14194466
35	0xbe12383c	-0.14279264
36	0x3df1e0c5	0.118104495
37	0x3d872095	0.065980114
38	0x3dad7e5b	0.08471366
39	0x3dfec59d	0.124400355
40	0xbca5bc6d	-0.02023145
41	0xbe029946	-0.12753782
42	0x3df1aae5	0.11800174
43	0x3dcc782e	0.0998386
44	0xbdffa91c	-0.12483427
45	0xbde756c9	-0.1129585
46	0xbdc4e8b2	-0.096146956
47	0xbe00e2d3	-0.12586527
48	0x3df974ca	0.12180479
49	0xbd9f38ce	-0.077745065
50	0xbde08d61	-0.10964466
51	0xbda915fb	-0.082561456
52	0xbd33394b	-0.04375581
53	0xbde37cb9	-0.11107773
54	0xbda01843	-0.078171276
55	0xbe07d7e6	-0.13265952
56	0x3d9dd6a9	0.07706959
57	0x3d8d61ee	0.06903444
58	0xbe112efd	-0.14178081
59	0x3d9155d9	0.07096452
60	0xbdee79f2	-0.11644353
61	0xbd57b325	-0.05266108
62	0xbe1c0d6b	-0.15239494
63	0xbd4883da	-0.04895387

conv_logvar.weight f4 [64, 64, 1, 1]
0	0x3dc1917e	0.094515786
1	0xbd943e9c	-0.07238504
2	0x3dda2ebc	0.10653445
3	0x3d34e3fb	0.04416273
4	0xbce0a399	-0.02742176
5	0xbdde0c7b	-0.10842224
6	0x3db0ffb3	0.08642521
7	0x3d008a0e	0.03138166
8	0xbb3e003f	-0.0028991846
9	0x3dc19814	0.09452835
10	0xbdb488ac	-0.088151306
11	0xbd21097e	-0.039315693
12	0x3dce3ad6	0.10069816
13	0xbd286632	-0.041113086
14	0xbc833d15	-0.016020337
15	0x3cadc82f	0.021213619
16	0xbd896dd4	-0.06710401
17	0x3ce3698f	0.027760295
18	0xbdf39c80	-0.118950844
19	0xbda69148	-0.08133179
20	0x3d4013ba	0.046893813
21	0xbdf6b653	-0.12046494
22	0x3d63b59b	0.055593114
23	0x3d746921	0.05967057
24	0xbdf01b2b	-0.11723932
25	0xbced56ff	-0.028972147
26	0xbd80f3d1	-0.06296504
27	0xbd9a5e08	-0.07537466
28	0xba12093d	-0.00055708346
29	0xbe04576a	-0.12923971
30	0xbdfd3a97	-0.12364691
31	0xbd639cd9	-0.055569503
32	0xbde1919a	-0.110140994
33	0x3dc9ab60	0.0984714
34	0xbd93299f	-0.07185673
35	0x3cdc85b1	0.026919218
36	0x3d4d3757	0.050101604
37	0xbceecb08	-0.029149547
38	0x3da5f986	0.081042334
39	0x3d5fb80c	0.05461888
40	0x3da56fce	0.08077966
41	0xbd869680	-0.06571674
42	0x3d9eed8e	0.07760154
43	0x3bcc95c9	0.0062434417
44	0x3d9d85bb	0.07691523
45	0xbdc6fbc3	-0.097159885
46	0x3dab2057	0.08355778
47	0x3de73601	0.11289597
48	0xbddc22e3	-0.107488416
49	0x3df5ad37	0.11995929
50	0xbd8f989a	-0.07011528
51	0x3d8f7e3b	0.070064984
52	0x3c8a59a3	0.016888445
53	0xbc1d18bf	-0.009588419
54	0x3d62f7ed	0.05541222
55	0x3ae322b9	0.0017329074
56	0x3cdfbdde	0.027312215
57	0xbb2272b4	-0.0024787607
58	0xbd77f6f6	-0.060538255
59	0x3d7d6711	0.06186587
60	0xbdb8fa55	-0.09032122
61	0x3d49119b	0.049089056
62	0xbd985da2	-0.07439734
63	0x3dbf5d25	0.09343938
64	0xbdcd78fd	-0.10032842
65	0x3d430fb2	0.04762239
66	0x3dcb2647	0.0991941
67	0xbe161f51	-0.14660384
68	0xbd2ab397	-0.041675176
69	0x3dc34479	0.095345445
70	0x3ca88036	0.020568948
71	0xbdd067ca	-0.10176046
72	0xbe06b4ee	-0.13154957
73	0xbd878cd1	-0.066186555
74	0xbd4f4d10	-0.050610602
75	0x3da11e09	0.07867057
76	0x3be99ef3	0.007129544
77	0x3d5892fb	0.052874546
78	0xbdb611c3	-0.088901065
79	0xbd9d95a4	-0.07694557
80	0x3cbe33a9	0.023217993
81	0x3d1fc4eb	0.039006155
82	0xbdcd3187	-0.10019212
83	0xbd7abab1	-0.0612132
84	0x3d80ee84	0.06295493
85	0x3daaac5a	0.08333655
86	0x3c2c94e1	0.010533542
87	0x3d398d50	0.04530078
88	0xbd46e718	-0.048560232
89	0xbd010902	-0.03150273
90	0x3dc42714	0.09577766
91	0xbc277775	-0.010221352
92	0xbd36c978	-0.04462573
93	0xbd01da21	-0.031702165
94	0x3cb84ed8	0.022498533
95	0xbdb3ad52	-0.087732926
96	0x3d404658	0.046942085
97	0xbdbcb089	-0.09213359
98	0x3d88bc4f	0.06676542
99	0x3c0579a7	0.00814668
100	0x3dd292f1	0.10281933
101	0xbdc52e80	-0.0962801
102	0xbddab760	-0.10679507
103	0x3d3cbbf7	0.046077695
104	0xb99e2b0c	-0.0003016818
105	0x3ded338a	0.11582096
106	0x3ce54c70	0.02799055
107	0x3db9adb3	0.090663336
108	0xbd9b79d8	-0.07591599
109	0x3d9d5109	0.07681472
110	0xbdfb9a29	-0.12285263
111	0xbcb9dd84	-0.022688635
112	0x3d6f9c62	0.058498748
113	0xbd691c5f	-0.056911822
114	0xbd415dc6	-0.04720857
115	0x3d0fc3ca	0.03509883
116	0xbd100969	-0.035165224
117	0xbdfa0542	-0.12208034
118	0xbdf48efd	-0.11941335
119	0x3c981338	0.018563852
120	0xbd8de546	-0.06928496
121	0x3d83e9c5	0.064410724
122	0xbd585f44	-0.052825227
123	0xbd226050	-0.039642632
124	0x3dd354eb	0.10318931
125	0xbd9118ee	-0.07084833
126	0x3c9c7d82	0.019102816
127	0xbd926fd5	-0.071502365
128	0xbcf1f515	-0.02953581
129	0x3df2bef8	0.11852831
130	0x3da6df0d	0.08148012
131	0xbd35f599	-0.044423673
132	0xbc7ef812	-0.015562074
133	0x3d46fd0a	0.04858116
134	0xbd43c5a3	-0.047795903
135	0x3dfd9baa	0.12383206
136	0x3debe723	0.11518695
137	0xbbbbcd0e	-0.0057312315
138	0xbd85872b	-0.06519922
139	0xbe084fc1	-0.13311674
140	0xbcc8c890	-0.024509698
141	0x3d9bac52	0.07601227
142	0x3ccea95d	0.025227243
143	0x3a433c0d	0.0007447608
144	0x3d8e9404	0.069618255
145	0x3dc8ef7a	0.098113015
146	0x3cad1131	0.021126362
147	0xbb9c823e	-0.0047762683
148	0xbc1bd601	-0.009511472
149	0x3cb9dc4a	0.02268805
150	0xbdefad29	-0.117029496
151	0x3d8beedf	0.068326704
152	0x3d9d0447	0.076668315
153	0x3d9ceb65	0.076620854
154	0x3dd531be	0.10409878
155	0x3d8da2da	0.06915827
156	0x3d83fee0	0.06445098
157	0x3d70e25d	0.058809627
158	0x3c121436	0.0089159515
159	0x3ce2afd3	0.02767173
160	0x3b4ee0e0	0.0031567141
161	0xbd08c024	-0.033386365
162	0x3c32b45f	0.010907262
163	0x3c2da350	0.010598019
164	0xbc9a6d32	-0.018850897
165	0xbd2afd9a	-0.04174576
166	0xbc8ebb81	-0.017423393
167	0x3dcb3eb9	0.09924073
168	0x3c3be5f0	0.011468396
169	0xbc0d6189	-0.008629211
170	0xbe04ca6e	-0.12967846
171	0xbd9d06cd	-0.07667313
172	0xbd502f29	-0.050826225
173	0xbd311994	-0.043237284
174	0x3b8cda89	0.0042985124
175	0x3dc7b9f2	0.09752263
176	0xbcfe2774	-0.031024672
177	0x3d937320	0.07199693
178	0xbd79156d	-0.06081145
179	0xbd7ebd5d	-0.06219231
180	0xbd00bce2	-0.031430133
181	0xbce0e894	-0.027454652
182	0xbb1c8970	-0.002388563
183	0xbdcbfd18	-0.09960383
184	0xbd1836d9	-0.03716168
185	0x3d3c45f2	0.045965143
186	0xbd3e6944	-0.046487108
187	0x3dc0b8ed	0.09410272
188	0xbc57bcd7	-0.0131675815
189	0x3d257b5a	0.04040084
190	0xbb8742d3	-0.004127839
191	0x3ddafc2e	0.10692631
192	0xbd39f9c1	-0.0454042
193	0x3d66b524	0.056325093
194	0xbd4b15b2	-0.049581237
195	0xbe001626	-0.12508449
196	0x3de09082	0.10965063
197	0x3d93a618	0.07209414
198	0x3dc472c0	0.09592199
199	0xbd938bfe	-0.07204436
200	0xbab4a861	-0.0013783091
201	0x3dbfbbba	0.09361978
202	0xbdf308ce	-0.11866914
203	0xbce4f446	-0.02794851
204	0xbc7781d7	-0.01510664
205	0x3c06be46	0.008224076
206	0xbd42d267	-0.047563937
207	0xbdabddb1	-0.08391894
208	0xbd7cdfd2	-0.06173689
209	0x3dbbb8cf	0.09166109
210	0xbbf8c918	-0.0075923316
211	0xbdc828ef	-0.097734325
212	0xbdc63872	-0.09678735
213	0x3cdc9110	0.02692464
214	0xbda4541f	-0.08023857
215	0x3d3ab5c9	0.04558352
216	0x3d42f6d1	0.047598664
217	0xbdd41100	-0.10354805
218	0xbc913c07	-0.017728819
219	0xbd50abe1	-0.050945166
220	0x3d349e9e	0.04409658
221	0x3d0990db	0.03358541
222	0xbdd4c617	-0.10389345
223	0xbe0b521f	-0.13605545
224	0x3dd56352	0.104193345
225	0xbdbfe780	-0.09370327
226	0xbd426e64	-0.047468558
227	0x3db61c24	0.08892086
228	0xbbf02ba8	-0.007329423
229	0xbcf1bcfa	-0.029509056
230	0x3d6ab456	0.057300888
231	0x3c06c257	0.008225045
232	0xbdaac551	-0.08338416
233	0x3cd14398	0.025544927
234	0xbd971403	-0.07376864
235	0xbc72691c	-0.014795568
236	0x3dc78bb3	0.097434424
237	0xb9f1f609	-0.00046150413
238	0xbb4ac339	-0.0030939116
239	0x3c844414	0.016145743
240	0xbc5658c3	-0.013082686
241	0x3dbe929d	0.09305308
242	0xbd1da658	-0.038488716
243	0x3da5150c	0.08060655
244	0x3d8cce04	0.06875232
245	0x3dba31bb	0.090915166
246	0x3da60536	0.08106463
247	0xbdbf1bbd	-0.093314625
248	0x3dbb83f5	0.09156028
249	0xbdb817bc	-0.08988902
250	0xbdd9a671	-0.10627449
251	0x3c039e88	0.008033402
252	0x3ccf6966	0.025318813
253	0xbd7bd8ec	-0.06148617
254	0xbbe1081f	-0.006867423
255	0xbd547a1f	-0.051874276

conv_logvar.bias f4 [64]
0	0x3d7a896a	0.061166205
1	0x3c97ed97	0.018545909
2	0x3c8d58e7	0.017254306
3	0x3d44e8e5	0.048073668
4	0xbd2ea59c	-0.042638406
5	0x3da1b154	0.07895151
6	0x3da6f4bf	0.0815215
7	0x3dac87f3	0.08424368
8	0x3cd1fed1	0.025634201
9	0x3cffd42d	0.031229103
10	0x3da35321	0.0797484
11	0x3bf1e5fb	0.007382152
12	0x3c2c5376	0.0105179455
13	0x3d94e144	0.072695285
14	0x3cb2f8b9	0.021847116
15	0x3cd90c71	0.02649519
16	0x3d8d2de0	0.068935156
17	0x3cc3aaff	0.023885248
18	0x3b86a49d	0.004108979
19	0xbd8db003	-0.06918337
20	0xbd9037e4	-0.0704191
21	0xbd5c6a9f	-0.05381262
22	0xbce63c81	-0.028105022
23	0x3c091389	0.008366474
24	0x3d9e040b	0.07715615
25	0x3c7995db	0.015233482
26	0xbd8aa778	-0.067702234
27	0xbba63555	-0.0050722756
28	0xbbf57e3b	-0.0074918545
29	0xbd4db996	-0.050225817
30	0x3ba482a5	0.005020457
31	0x3d845a59	0.06462545
32	0x3c25f12b	0.0101283
33	0x3cc122ce	0.023576166
34	0x3cb5c929	0.022190647
35	0x3b8c997d	0.004290758
36	0x3d934ccd	0.07192383
37	0xbd29f799	-0.041495893
38	0xbda9f442	-0.082985416
39	0x3d17bb01	0.037043575
40	0x3d772b16	0.060343824
41	0xbcc8073a	-0.024417508
42	0x3c865c5b	0.01640146
43	0xbce3fad7	-0.02782957
44	0xbd468caf	-0.04847401
45	0x3cef40b4	0.029205658
46	0x3d017411	0.03160483
47	0x3c2512dc	0.010075297
48	0xbda6a232	-0.08136405
49	0x3cece544	0.028917916
50	0xbd553a1c	-0.05205737
51	0x3d9437ca	0.072372034
52	0x3dc1243e	0.09430741
53	0x3d97f463	0.0741966
54	0xbd3a1acd	-0.045435715
55	0x3d9d2024	0.07672146
56	0xbc20ace5	-0.009806846
57	0xbda32814	-0.07966629
58	0x3d4e2487	0.050327804
59	0x3db00140	0.085939884
60	0x3d518328	0.05115047
61	0xbd489ac4	-0.04897572
62	0xbcc36b2c	-0.023854814
63	0x3dc3b95c	0.09556839

decoder.0.weight f4 [64, 32, 3, 3]
0	0x3d5b3909	0.05352119
1	0x3c3ec4a3	0.011643562
2	0x3d3333de	0.043750636
3	0x3d6c9506	0.057759307
4	0x3d0d51cf	0.034501847
5	0xbd428dba	-0.047498442
6	0x3c5d9aaf	0.013525649
7	0x3d9bd810	0.0760957
8	0xbc0067ab	-0.007837216
9	0x3d4d93de	0.050189845
10	0xbd174940	-0.03693509
11	0x3ca7b7ba	0.02047335
12	0xbca0e855	-0.019642035
13	0xbcbc3d44	-0.022978432
14	0x3d986467	0.07441025
15	0xbd099e7a	-0.0335984
16	0x3cc5dc7f	0.024152992
17	0x3d874fd8	0.06607026
18	0x3d671e7e	0.056425564
19	0x3d172429	0.03689972
20	0x3d0ee854	0.034889534
21	0x3c68be56	0.014205536
22	0x3d8bf12c	0.06833109
23	0x3d97573d	0.07389686
24	0xbd1ab99d	-0.03777467
25	0xbd72be57	-0.059263553
26	0x3d7664da	0.060154773
27	0x3da3e0a4	0.08001831
28	0x3c851b6d	0.01624843
29	0x3d914c7b	0.070946656
30	0xbd91be6d	-0.07116399
31	0xbcf0d4de	-0.029398378
32	0x3d7416da	0.059592105
33	0xbdadb56a	-0.084818676
34	0xbcbc92b6	-0.023019176
35	0x3d9e2b46	0.077230975
36	0xbd4b96f4	-0.049704507
37	0x3d6bdcd8	0.05758366
38	0xbd5f0a73	-0.054453325
39	0xbd3e4fc3	-0.046462785
40	0x3d2b0d08	0.041760474
41	0x3d511c67	0.051052477
42	0xbd4f834c	-0.050662324
43	0xbd945c52	-0.07244171
44	0x3d3f0cb9	0.046642993
45	0x3d8187a1	0.06324697
46	0x3d1445c2	0.03619934
47	0x3dbc6594	0.09199062
48	0xbd8827ce	-0.06648217
49	0x3d8d63e7	0.069038205
50	0xbd656046	-0.056000017
51	0xbd9afcd0	-0.075677514
52	0x3d7a8d27	0.06116977
53	0xbc8be642	-0.017077569
54	0x3dabd50c	0.08390245
55	0xbd0f4f71	-0.03498787
56	0x3d8bf572	0.06833924
57	0xbcf175ac	-0.029475056
58	0xbd3e555c	-0.046468124
59	0x3bc1d116	0.0059148176
60	0x3b94e53d	0.004543929
61	0x3d8d552e	0.06901012
62	0x3d987284	0.07443717
63	0xbcf1441f	-0.029451428
64	0x3d5d7b2c	0.054072544
65	0x3d710e26	0.058851384
66	0xbd8cf5e3	-0.06882837
67	0x3cd74a5b	0.026280573
68	0xbd5fe9e7	-0.054666426
69	0xbbcf4b96	-0.006326149
70	0x3d8232a4	0.06357315
71	0x3cf5364f	0.029933123
72	0x3da73fa2	0.08166434
73	0x3d964e98	0.07339209
74	0x3cb8055d	0.022463495
75	0x3d8d7a8e	0.06908141
76	0x3dda5237	0.106602125
77	0xbb052c16	-0.0020320467
78	0xbce03c04	-0.027372368
79	0xbd469a14	-0.048486784
80	0x3d6d7338	0.05797121
81	0xbc5f69c4	-0.013636056
82	0x3c75bae2	0.01499817
83	0x3d008b77	0.031383004
84	0x38425681	4.6333767e-05
85	0x3cf61327	0.03003843
86	0x3c4f3493	0.012646812
87	0x3d1d0e5c	0.038343772
88	0x3c0ea8c3	0.008707228
89	0x3d3d77c7	0.046256807
90	0x3d7d7a4d	0.061884213
91	0x3d57c437	0.05267736
92	0xbd9eb6a1	-0.077496774
93	0x3db0e3a6	0.086371705
94	0x3ba3947e	0.004992067
95	0xbc493e47	-0.0122829145
96	0x3c834825	0.016025612
97	0xbd86d97a	-0.06584449
98	0xbd8d008b	-0.06884869
99	0xbbd7b1d7	-0.0065824795
100	0xbcde544b	-0.027139803
101	0xbcf8392c	-0.0303007
102	0x3d99b857	0.07505863
103	0xbd3656b0	-0.044516265
104	0xbcc4ebcd	-0.02403822
105	0x3d6a34bf	0.05717921
106	0xbc5ce570	-0.013482437
107	0xbcb70580	-0.02234149
108	0xbd89678f	-0.06709205
109	0xbd94694c	-0.07246646
110	0x3c176715	0.009240885
111	0xbd829494	-0.06375995
112	0xbd269e32	-0.04067821
113	0x3d38241b	0.044956308
114	0xbcbbddf4	-0.022932984
115	0xbd85b1cc	-0.06528053
116	0xbd4bb3e6	-0.04973211
117	0x3d708ec4	0.058729902
118	0xbcedb70c	-0.029017948
119	0x3da8d201	0.0824318
120	0x3d0e3b22	0.034724362
121	0x3d66a67a	0.05631111
122	0x3c65fead	0.01403777
123	0x3d9cd507	0.07657819
124	0xbcd8670d	-0.026416326
125	0x3dc22f03	0.09481623
126	0x3d1da871	0.038490716
127	0xbd99432d	-0.07483516
128	0xbd9939d2	-0.074817315
129	0x3d8d05b8	0.068858564
130	0x3da00209	0.07812888
131	0x3db4442d	0.08802066
132	0xbc959885	-0.018261204
133	0x3d7fa611	0.062414233
134	0xbd301249	-0.042986188
135	0x3da8266b	0.08210453
136	0x3d43d97a	0.047814824
137	0x3db0a2c6	0.086247966
138	0x3cb9d6a8	0.022685364
139	0xbd4752bd	-0.04866289
140	0x3da4ccfe	0.08046912
141	0x3d4f5aa3	0.050623547
142	0xbd604ec7	-0.054762628
143	0x3d317213	0.04332168
144	0xbd425ce3	-0.047451865
145	0x3d98ba4c	0.07457408
146	0x3db4a851	0.08821166
147	0x3da6df8e	0.081481084
148	0xbd46abd4	-0.04850371
149	0x3dc0742b	0.09397157
150	0xbda94aa9	-0.082661934
151	0xbd89e053	-0.067322396
152	0xbc306915	-0.010767241
153	0xbd8ae5a9	-0.067820854
154	0x3d3658e8	0.04451838
155	0x3da3a996	0.0799133
156	0x3d53d84b	0.051719945
157	0x3ceb26aa	0.02870496
158	0x3c0fb56d	0.008771283
159	0xbc8c7fbe	-0.017150756
160	0x3d85acfb	0.06527134
161	0xbd0e3291	-0.034716193
162	0x3d091439	0.03346655
163	0xbd66ec01	-0.056377415
164	0xbc94c42f	-0.018159954
165	0x3d504a45	0.05085208
166	0x3d43794d	0.047723103
167	0xbd07f264	-0.033190146
168	0x3d64e9a5	0.055886883
169	0x3d96011b	0.073244296
170	0xbdb257dd	-0.08708165
171	0xbcbd61b5	-0.02311788
172	0x3d8f3f11	0.06994451
173	0x3b55b935	0.0032611613
174	0xbd98162f	-0.07426106
175	0x3d52e92f	0.051491912
176	0x3d84fa05	0.06493
177	0x3d378cb2	0.044811912
178	0x3dd6a1e6	0.104800984
179	0xbd8f1303	-0.06986048
180	0x3cb6dd45	0.022322306
181	0x3d5c8733	0.053839874
182	0x3c97f8dc	0.018551283
183	0xbcd76ff6	-0.026298504
184	0x3d469ff2	0.04849238
185	0xbd95ba30	-0.07310903
186	0xbdb38226	-0.08765058
187	0x3dc741df	0.09729361
188	0x3dd055a1	0.101725824
189	0xbb650d4b	-0.003495055
190	0x3b503751	0.0031771252
191	0x3d3f99ac	0.046777412
192	0xbcb678a5	-0.022274325
193	0x3ceff4a0	0.029291451
194	0x3dbd85cc	0.09254035
195	0x3cfe4692	0.03103951
196	0xbd822cc2	-0.06356193
197	0x3dc84759	0.097792335
198	0x3d5b9fd0	0.053619206
199	0x3d3a6af4	0.045512155
200	0xbd55a204	-0.052156463
201	0x3c1934b3	0.009350943
202	0x3d6ad47f	0.05733156
203	0x3d6c8a55	0.05774911
204	0x3bae2365	0.005314278
205	0x3da5e349	0.08099992
206	0xbd47e026	-0.04879775
207	0xbc8e4067	-0.017364694
208	0xbc9a7a66	-0.018857192
209	0x3d35c17f	0.044373985
210	0x3da0b27e	0.07846545
211	0xbd85990e	-0.065233335
212	0xbc291ae7	-0.010321355
213	0x3cea8580	0.02862811
214	0x3d7a3710	0.061087668
215	0x3bedbe55	0.0072553554
216	0x3c5bef99	0.013423824
217	0x3d4c46e7	0.049872305
218	0xbb96c629	-0.0046012593
219	0x3d905a4e	0.07048474
220	0xbca15959	-0.019695925
221	0x3c65c46b	0.0140238805
222	0x3c0da772	0.008645879
223	0x3d72f8f3	0.059319448
224	0xbd18db90	-0.037318766
225	0xbcec35fa	-0.028834332
226	0xbcbd3b09	-0.02309944
227	0xbd276a47	-0.04087284
228	0xbd3f7c95	-0.04674967
229	0x3d90b55e	0.07065843
230	0xbc5f4d7e	-0.013629315
231	0x3d55780a	0.05211643
232	0xbd98ef0e	-0.07467471
233	0x3d4095b2	0.04701776
234	0xbdc10b38	-0.09425968
235	0x3daea0d8	0.08526772
236	0xbd4ac26b	-0.049501818
237	0x3d71431a	0.058901884
238	0x3ccd40b9	0.025055276
239	0xbd808e5d	-0.06277154
240	0x3d58e43e	0.052952044
241	0xbda77c87	-0.081780486
242	0x3dd4b89a	0.103867725
243	0x3db01cd4	0.085992485
244	0xbd88fe80	-0.06689167
245	0xbccca7af	-0.024982302
246	0x3db9ee7d	0.09078691
247	0xbc8de583	-0.017321354
248	0x3db3a1ae	0.08771072
249	0x3da81866	0.08207779
250	0x3d922e54	0.07137743
251	0x3dce2bbe	0.10066937
252	0x3d6998eb	0.0570306
253	0xbd5c6309	-0.053805385
254	0x3c1851f7	0.009296886
255	0xbd844921	-0.06459261

decoder.0.bias f4 [32]
0	0x3d6c64ab	0.057713192
1	0x3d3f4a55	0.046701748
2	0x3c8069ac	0.015675388
3	0x3c13410c	0.008987676
4	0x3de4373d	0.11143348
5	0x3dc2f0f3	0.09518614
6	0x3c610a97	0.013735435
7	0x3ce5146e	0.027963843
8	0x3dd945e1	0.106090315
9	0x3cdabd8a	0.026701707
10	0x3d24af74	0.040206388
11	0x3cd8ce5b	0.026465585
12	0x3d29526a	0.04133836
13	0x3dc36205	0.0954018
14	0x3d3c4bbf	0.045970675
15	0x3d578e9d	0.05262624
16	0x3d6edef9	0.058318112
17	0x3da7416d	0.08166776
18	0x3dc833b0	0.097754836
19	0x3d4c8d55	0.049939472
20	0x3d4e6c39	0.050396178
21	0x3c46aa7a	0.012125606
22	0x3dd37191	0.103243954
23	0x3cde1857	0.027111216
24	0x3ce4ac25	0.027914116
25	0x3de24fbd	0.11050365
26	0x3caafc19	0.020872163
27	0x3dbe30e2	0.092866674
28	0x3a1c4b6a	0.00059621653
29	0x3da0997a	0.07841773
30	0x3cd71184	0.02625347
31	0x3b318313	0.0027086183
