Variational_Auto_Encoder/autoencoder.pth (torch, 8759 bytes, 8 tensors)

encoder.0.weight f4 [16, 3, 3, 3]
00000000: 7ec6 47be d4c9 3a3d 89ad 6ebd 3a80 f3bc
00000010: ac5e 4d3e 5167 f7bd 7455 3b3e 6565 90bc
00000020: 3843 d43d 4724 a33d 9b2c 593e 184b 81bd
00000030: 8bc9 6cbd 00a6 1ebc e912 a63c 8a19 4fbd
00000040: 581a 093e 39a3 7c3e d4d1 da3b 3cb0 393e
00000050: 21ed 1f3e 4db9 8d3d f770 88bd fbdd 293e
00000060: b062 4e3e 0a5e 403b d006 2b3e 2b94 8fbc
00000070: a2c9 133e e1c4 1c3e 6e86 8bbd 16fe d83d
00000080: 9224 113c d9b3 6d3e 1206 ca3d dcd6 ddbd
00000090: 0952 173c 6a27 383e 4ef2 323e 4d21 fb3d
000000a0: 8741 8bbd ec18 ce3d 4bfd 87bd 2efe 763e
000000b0: 018f 42bd a4d1 b6bd dd3c d13c 80b7 083e
000000c0: adbe 7abd f4db ed3a 8dbc b93c 50ea b13d
000000d0: 9fe7 abbd 10f1 8f3d 02cc bfbd 618a 7c3d
000000e0: ea58 1ebe 71fc 25be 6c41 4fbd 410b bcbd
000000f0: c053 8ebb fd6b ed3d 2883 6dbd 32a7 22be
00000100: 3e55 f3bc 7e92 033d 4f0f 84bd 4e8d a93d
00000110: 2da7 283b 452c ea3d 8821 c13d 4332 593d
00000120: a408 f0bd 00e0 be3d 5935 083e 98dd 2f3e
00000130: c849 7c3d b675 24be ad8e 7fbd 922a e6bd
00000140: 78a3 67bc b0ea a4ba dfa1 693e 1ab1 30bd
00000150: ec70 ddbd 11ab c5bc 3955 2b3e cbd9 623e
00000160: 04b9 663c 05e8 ddbd c4ac 9b3c 60c6 663d
00000170: 5697 ce3d 3deb 13be bf70 0bbe f9ea 3d3e
00000180: 7a4b 243e b1cd c3bd 1555 183e 8b73 6ebd
00000190: 9008 16be df08 363e 508d ecbd b6a4 1abe
000001a0: c739 993d dd47 21be 1469 c1bd 55c5 22be
000001b0: 76f5 ad3d bcab c3bc fdec 133e 9774 08bd
000001c0: 77c9 7c3e c66b 9fbd efe2 9c3d 336e 763c
000001d0: 6368 643e de6b 7a3d da42 6a3d c360 99bd
000001e0: d694 2f3e a9ea 2dbd 5e0a 323e 8c11 273d
000001f0: 5d1f 803d 338b 7bbc 9984 563e cb5a a7bc
00000200: cc98 55bd 49c2 9d3d 0e4c 4fb6 6d2a 183e
00000210: 516a c5bd 4940 973d b716 763e 2dbf b9bd
00000220: 59d9 803e 47e7 0b3d 0269 c9bc 574c e63d
00000230: b797 953e 10c8 853c ed85 393e 8cd4 b53d
00000240: 6caa 2b3e c257 9dbd 3a1f f63c 6430 483e
00000250: 83d7 2d3e ec6e e43d df63 623e e5c5 d3bc
00000260: 80b0 403d b806 3bbc 21c5 00be 2dc5 45be
00000270: 8aac 74bd bbb2 ce3d 3fc7 053e e76d 0c3e
00000280: c80d 84bc ad2e 063e f036 bbbb e3ae 11be
00000290: ed6d 393e e610 a3bd 921f 273e c4e4 063e
000002a0: a69c d0bc 96e9 5c3d 4e81 04bd 3722 893d
000002b0: fff8 3dbe fd58 26be 8b97 30be 50bb 15bd
000002c0: 6c2a 2c3e 2cfd 52bc 2ce2 11be f650 c63d
000002d0: 5277 d1bc 5b7e 73bd ed39 053d 8845 1d3e
000002e0: 2b97 2d3e 1ebb 813d 13b1 92bd 93b0 0bbe
000002f0: 421e fe3c d708 eebc 45bf b3bd c800 29bd
00000300: a049 2f3d 68bd 6abd d204 1abe f7ec d33d
00000310: 98d3 b43d 704b 4abc 0f7d a8bd 46e9 e23c
00000320: c042 c23d b7bd 32be 7eaa fa3d 9a5f 923d
00000330: cb9e 323e 59cb 44bd af40 0fbd d1ff 0d3d
00000340: 7c16 8f3d 54eb 0cbe 3219 1a3e a38c afbc
00000350: a0f7 91bd 0a61 fcbd 0f4d 54be 2232 3b3e
00000360: 46a6 11be 42a5 5d3d d9f4 fdbb 4e71 07be
00000370: ad49 9e3d 498b 203d 5161 f2bd b471 043e
00000380: 3f85 8e3c 21f3 11be 98d1 f5bc 7579 0ebe
00000390: a6d1 44be 32ab 2cbe 21f7 823d 2a06 803d
000003a0: d74b 96bd 66dc 11be 79c8 42be 83e3 203e
000003b0: 4618 d7bd 804b 66bc 3313 e6bc ea15 18be
000003c0: 3791 383c 6387 b9bd 00eb 243e e540 123d
000003d0: eb36 043e f97f 563d e886 c53d a988 8bbd
000003e0: e8bd f73d 012b 59bd 4696 d33d 911e e8bb
000003f0: 8ee3 b5bd a24a 3b3e fb20 573e ace6 283e
-0.19509313 0.045602635 -0.058270965 -0.02972423 0.20055646 -0.12080253 0.18294317 -0.017626474
0.103643835 0.07965904 0.21208422 -0.06313151 -0.057809394 -0.009683132 0.020272689 -0.050561465
0.13388956 0.2467164 0.0066778455 0.18133634 0.15617801 0.06920109 -0.06662171 0.16588585
0.20154834 0.0029352927 0.16701818 -0.017526707 0.14432386 0.15309478 -0.0681275 0.10595338
0.008858817 0.23213138 0.09864439 -0.10831997 0.009235867 0.17983785 0.17475244 0.12262211
-0.06799608 0.10063347 -0.06640109 0.241204 -0.04749966 -0.089267045 0.025541717 0.1335125
-0.061217 0.0018147216 0.022672916 0.0868727 -0.083937876 0.07028401 -0.09365083 0.061655406
-0.15463606 -0.1620958 -0.0505995 -0.09181834 -0.00434348 0.11592863 -0.05798641 -0.15884092
-0.029703733 0.032122128 -0.064482324 0.08278905 0.002573441 0.11434225 0.09430224 0.05302645
-0.11720398 0.09320068 0.133016 0.17174375 0.0615938 -0.16060528 -0.062391926 -0.112385884
-0.014138095 -0.0012582149 0.22815655 -0.043137647 -0.10812554 -0.024129422 0.16731729 0.22153394
0.014082197 -0.1083527 0.01900328 0.05634153 0.10087459 -0.14445205 -0.13617228 0.18546666
0.16044417 -0.09560717 0.14876206 -0.05821566 -0.14651704 0.17776822 -0.11550391 -0.15101895
0.07481723 -0.1575007 -0.0944387 -0.15895589 0.084940836 -0.0238856 0.14445873 -0.033314314
0.24686228 -0.07784228 0.07660472 0.015040922 0.22305445 0.061138026 0.05719266 -0.07489159
0.1714662 -0.042460117 0.17386767 0.04078822 0.06255982 -0.015353012 0.2094902 -0.020429036
-0.05214767 0.077030726 -3.0889673e-06 0.14859934 -0.09639419 0.07385308 0.24032103 -0.09069667
0.25165823 0.03415611 -0.024586204 0.112450294 0.29217312 0.016330749 0.18117495 0.08878431
0.1676423 -0.07682754 0.030044187 0.1954971 0.16976742 0.11153969 0.2210841 -0.0258512
0.047043324 -0.011415176 -0.12575199 -0.19313498 -0.05973486 0.10092684 0.13064288 0.137138
-0.016119853 0.13103743 -0.005713336 -0.1422687 0.1810834 -0.079622075 0.16320637 0.13173205
-0.02546532 0.053933702 -0.032349877 0.06695979 -0.18552016 -0.16244884 -0.17245309 -0.03655559
0.16813058 -0.012877744 -0.14246434 0.09683411 -0.025569592 -0.059446674 0.032525945 0.15358555
0.16952197 0.06334518 -0.071626805 -0.13641576 0.031020287 -0.02905695 -0.08776716 -0.04126051
0.042794824 -0.057309538 -0.15040901 0.10347932 0.08829421 -0.012347087 -0.08226978 0.027699124
0.09485388 -0.17455183 0.1223955 0.07147141 0.17443387 -0.04804549 -0.034973796 0.034667794
0.069867104 -0.13761646 0.15048674 -0.021429366 -0.07127309 -0.12323196 -0.2073252 0.18280843
-0.14223585 0.05411268 -0.0077501354 -0.13226816 0.07728896 0.039195333 -0.11834968 0.12934
0.017397521 -0.14252903 -0.030007169 -0.1391352 -0.192206 -0.16862181 0.06394792 0.06251176
-0.07338684 -0.14244232 -0.19021787 0.15711789 -0.10502677 -0.014056087 -0.028085327 -0.1485211
0.011265091 -0.09059026 0.1610527 0.03570642 0.12911575 0.052368138 0.09644872 -0.06813175
0.120967686 -0.053019527 0.10331397 -0.007083722 -0.08881293 0.18290189 0.21008675 0.16494244

encoder.0.bias f4 [16]
00000000: dd5c 0dbe f241 76be 3274 f7bd 55a9 4e3e
00000010: 2335 87be 5942 9dbe 2c10 083e 7f1d ab3e
00000020: 0384 dabd 2e8b ccbd eaed 783e 1b90 19be
00000030: a491 c3bd 7244 df3d d999 193e 58a5 a5bd
-0.13804956 -0.24048594 -0.12082709 0.20181783 -0.26407728 -0.30714682 0.13287419 0.3342094
-0.106697105 -0.09987484 0.24309507 -0.14996378 -0.09549263 0.10901727 0.15000094 -0.080881774

conv_mu.0.weight f4 [16, 16, 1, 1]
00000000: 2369 5fbe 210d c8be 6433 5e3e 2d94 0a3e
00000010: 8d20 4dbe 4bb2 76bd 089a 783e cfe2 a13e
00000020: 925d 25be 59ea bfbd e761 1bbc 38a7 6c3d
00000030: e256 2abe c2fe d13d 6b8c 49bc 4e2f 7dbc
00000040: c34b 5cbd 4e05 3d3e 6417 0abd 3b44 5c3d
00000050: 0ab0 903d b8ff 863e 770e 61be 1f77 abbe
00000060: 934a c63d 98aa a93d a647 33be 80e2 143e
00000070: ff93 5d3e a44c 843b 7b50 5dbe ac8f acbd
00000080: 7ebf a43d 7bc3 b43e 87a6 44bc eaa0 a2be
00000090: 9bc4 c13e 04ef 1c3d de37 6fbe d056 cbbe
000000a0: b7b5 bdbd 233f c9bd d99f 33be 1e65 983e
000000b0: 9257 55bd 5901 babe bf10 80be 5219 5b3e
000000c0: bce5 22be 248c b9be d882 ef3d 179a 333d
000000d0: 4d3e f13c 6253 23be a79d bb3d 992d e53e
000000e0: 98c4 bf3c 6c4f 153e ccc0 243d ee6c cc3d
000000f0: fb58 7538 0ed6 ce3d d2ea 90bd 2435 d4bb
00000100: c982 713d ab86 a33e 22e4 5cbe ae9a c6be
00000110: f6a3 6bbc 3216 b23e afeb f1ba 40d0 ebbd
00000120: a92b 82bd 4636 2c3e 23d2 5abd 4a13 ebbd
00000130: 441f 723e c516 793d 3149 10be 6771 5abc
00000140: 51bf 9cbc a502 29be a8d5 7c3d a9be 5c3e
00000150: fe72 833d 34a5 983e 09ff 5abe 0e54 8cbd
00000160: 8986 77bd a5c1 843d 0064 42be f1ee 78bd
00000170: df79 003e 5380 d03d 2707 4cbe 6d87 42be
00000180: 7d68 d83d 8b74 183e 8fc0 bfbd 8511 1fbe
00000190: 0904 c73e 13bc cb3d 6fd7 46be 6482 0dbe
000001a0: 26c1 18be d27f 573e b23c d9bd d73e 893e
000001b0: d9e4 85be 4e42 17be 57dc 4cbe 6aff 15bd
000001c0: 1da3 ce3d e2cf 2bbc a166 9bbd c5ea 6dbc
000001d0: f2a2 1d3c 058c 11bd 356a 3fbb db8a 1a3e
000001e0: 51d5 7e3e ad91 87bd c12e 253e 054e ac3b
000001f0: 8654 35bd d966 21be 5072 37bb 8eb4 9a3d
00000200: 105b 2cbe 2602 a7bd b5e6 f7bd 5c99 c23e
00000210: 84e5 b2be 0cac bfbc 5924 d3bd 0b05 073d
00000220: 93c4 0c3e bfa6 c7bd c684 643e 42eb e33c
00000230: 29c2 473e 1682 e3bd 7e79 38bd 924b 753e
00000240: d89c d43d 482c 9b3c e449 80be 29ca 6f3d
00000250: e7b5 e5bd 2dd4 843e 0cd4 3e3d 0706 a23c
00000260: 9cbc 18be 7d2b 9d3d 385c 59be 0c4b 1ebc
00000270: ac8b 22bc 348f 1bbe 9ac7 e73d 6795 d6bb
00000280: 08ad 81be ee01 e3bd 53bb 0d3e 2af5 ab3e
00000290: d591 8dbe 3ac6 4fbd 400c 33bd 62d6 c53e
000002a0: 84e1 bf3d a740 7ebe 3b11 ce3d 7d93 90be
000002b0: a3da 113d f174 923c 40b9 903e 39f3 7a3e
000002c0: 773f f63d bbd4 993d 789b 06be 2409 1ebe
000002d0: cec6 a0bc 91ef 933e ed96 1dbe 2dd3 63be
000002e0: 6331 d63d b1e8 603e 6800 8dbe 5dff cb3d
000002f0: 01a7 24bd f6f6 b43c 9fdd 003e 25a7 513e
00000300: a7e1 f83d c4cf 383e 7523 6bbc 0703 5b3d
00000310: d4cf 4c3e cca1 adbe ae6a 87bc 0812 24bd
00000320: 6b7d c2bc 55b2 29be 1a6d 8f3e 5cd0 8c3e
00000330: 15ee 3bbe 4de9 aebd 7b97 503c 5a8d 3cbd
00000340: 9a28 4ebe 712a 773c 9533 483d c4b2 b23e
00000350: 2897 cdbd d125 e4be f072 c5bc 943e a13e
00000360: 41fe 3f3e d717 babe 7243 d83e 1a1e 03be
00000370: b81e 31be c01b 27be 76bd 703e 60f7 fbbb
00000380: 5063 40bd 74cf 74be 658c 2c3e b374 c03b
00000390: 2490 203e 6d3c 37be 374e 0ebe aa05 213e
000003a0: b060 80bd a91b 3a3e e3da cc3d 438e 0d3c
000003b0: 11b5 31bd 6a68 75bd 3aa8 73bd 20c1 573e
000003c0: 9c98 f3bd 22a1 3dbd 8be9 e93d 7af9 c33d
000003d0: c5fc 903d 16d6 98be 068d 813e f50c 0e3d
000003e0: ecbd 26be f25e 7abe 0185 42bd 4f5f 2a3e
000003f0: c8ce a33d dc6f 26be 24bb 55bd ddf4 d0bd
-0.2181745 -0.39072517 0.21699291 0.13533087 -0.20031948 -0.060228627 0.24277508 0.31618354
-0.16148975 -0.0937087 -0.009483791 0.05777666 -0.16634706 0.10253669 -0.012301545 -0.015453173
-0.05378319 0.18459055 -0.033713713 0.053776007 0.07064827 0.26366973 -0.21978174 -0.3348932
0.09682193 0.08284491 -0.175078 0.14539528 0.21638487 0.0040374566 -0.21612732 -0.08425841
0.08044337 0.3530539 -0.012002594 -0.31763393 0.3784531 0.03831388 -0.23361155 -0.3971467
-0.09263175 -0.098264955 -0.17541446 0.29764646 -0.052085467 -0.36329153 -0.25012776 0.21396378
-0.15907949 -0.3623973 0.11694878 0.043848123 0.029448653 -0.15949777 0.09160929 0.4476135
0.023409173 0.14581078 0.040222928 0.09981714 5.849542e-05 0.100994214 -0.070760384 -0.0064760614
0.058962617 0.3193868 -0.21571401 -0.38789886 -0.014382353 0.3478256 -0.001845708 -0.1151433
-0.06355984 0.16817579 -0.05342306 -0.114782885 0.2364474 0.06081273 -0.1409042 -0.013332701
-0.019134196 -0.16504915 0.061727196 0.21557106 0.064184174 0.2981354 -0.2138635 -0.0685197
-0.060431037 0.06482247 -0.1898346 -0.060774747 0.1254649 0.10180726 -0.19924603 -0.18996973
0.105668046 0.14888208 -0.093628995 -0.15534027 0.38870266 0.09947982 -0.19418119 -0.13819271
-0.1491743 0.21044853 -0.1060728 0.26805755 -0.2615116 -0.14771387 -0.20005928 -0.036620535
0.10089705 -0.010486575 -0.07587934 -0.014521305 0.009621369 -0.035533924 -0.0029207591 0.15092032
0.24886061 -0.06619582 0.16131116 0.005258324 -0.04427006 -0.1576189 -0.002799172 0.07553969
-0.16831613 -0.08154707 -0.12104551 0.3800763 -0.34940732 -0.023397468 -0.10309667 0.032963794
0.13746862 -0.09748601 0.22316274 0.02782214 0.1950766 -0.11108796 -0.04503774 0.23954609
0.10381478 0.018942013 -0.25056374 0.058542404 -0.11216336 0.25943127 0.046588942 0.019778265
-0.14915699 0.0767431 -0.21226585 -0.009661447 -0.009920996 -0.15191346 0.11317368 -0.006548572
-0.25327325 -0.110843524 0.1384099 0.33585483 -0.27650324 -0.050726153 -0.043712854 0.38640124
0.093691856 -0.2482935 0.1006188 -0.28237525 0.0356089 0.017878028 0.28266335 0.24506845
0.12023824 0.07511278 -0.13145244 -0.15433174 -0.019626047 0.28893712 -0.15389605 -0.22248526
0.104586385 0.21963765 -0.27539372 0.09960816 -0.04019833 0.022090416 0.12584542 0.20473917
0.12152415 0.18048006 -0.014351715 0.053469684 0.20001155 -0.33912504 -0.016530361 -0.04005626
-0.023741445 -0.16571935 0.28012925 0.27502716 -0.1835254 -0.08540592 0.012731428 -0.04603324
-0.20132676 0.015085802 0.048877317 0.34902012 -0.100385964 -0.44560102 -0.024102658 0.31493056
0.18749334 -0.36346313 0.42238957 -0.12804452 -0.17296875 -0.1631918 0.23509774 -0.0076894015
-0.04696971 -0.23907262 0.16850431 0.0058732866 0.15679985 -0.17894144 -0.13897024 0.15724817
-0.06268442 0.18174614 0.10002687 0.008639875 -0.04338557 -0.05991403 -0.059486605 0.21069765
-0.11894342 -0.046296246 0.11421498 0.09569068 0.07079462 -0.29850835 0.25302905 0.034680326
-0.16283387 -0.24450281 -0.047490124 0.1663792 0.07998425 -0.16253608 -0.052180424 -0.10202954

conv_mu.0.bias f4 [16]
00000000: bd4d 873e 45b5 f7bd 607c 96bd eceb af3d
00000010: 2b0e 60be 5a71 a5bd 9974 95be fe3b f6bc
00000020: 4980 a43e 150a f9bd a220 933e ff42 56be
00000030: be35 f4bd 9813 b63e 6ac3 903d 79f2 713e
0.26426497 -0.12095121 -0.073479414 0.085899204 -0.21880405 -0.08078261 -0.2919052 -0.030057903
0.32129124 -0.12160126 0.28735834 -0.20923994 -0.11924313 0.35561824 0.07068522 0.23627652

conv_logvar.0.weight f4 [16, 16, 1, 1]
00000000: 78c0 1e3e 625d ec3c 9f76 f1bd 0d5a fbbd
00000010: 99f6 34be 611b 42bd 7763 f4bd 1af7 48bd
00000020: 3539 b3bd 75d9 0e3e 5e6b e23d 51a8 463d
00000030: 8218 0d3e a8f9 75bd dc83 383e e4e1 613e
00000040: e6d7 82bd f8fc a8bd 72bd 20be 1462 35bc
00000050: 2afa bbbd 64b7 5d3e 845f 193e 1f30 babe
00000060: f129 fa3d 045b 99bd 571c bbbd 2cd9 21be
00000070: d51e 32be f835 4b3e 4103 91bd 3cd4 1abe
00000080: 4295 e6bd 6397 c2bb 7b37 63bb 35ab c73d
00000090: 70d8 56be 80f9 773e b96c 1f3e 3b57 2fbe
000000a0: 453f a2bc 27f0 a33d 7c63 50be 8299 c2bd
000000b0: c4ef fcbd ecb6 4b3e b01c 3fbc 7ced 4d3b
000000c0: c132 2fbd 2d71 83bd efc6 c83c 9355 923d
000000d0: 4dd3 0d3e 5b50 d4bc fb45 4fbe 390a e3bd
000000e0: 4e2d 5d3e 1ee0 11bc d468 3abd a923 35bd
000000f0: ecc8 df3d c75e d2bc c64c d7bd 8990 adbb
00000100: 1b29 9c3d 4176 fcbd 60c1 373e 4af9 9d3d
00000110: f4e0 0a3d f0ae af3d d074 b6bd 7aa3 b63d
00000120: 3aca 133e 4590 fdbd c9c8 203c 036d 5d3c
00000130: 81d0 7f3e 199f 1dbe dbcd 28be 2c7b 06be
00000140: 9330 10be 836a a73d a738 053e e32d 74bd
00000150: 3f0a bb3d a48d e03c 8381 19bc 2f20 613e
00000160: 25cd 83bd 7fec 3d3e 53ba 9d3c 82e6 3fbe
00000170: c8b8 1bbe 7213 bcbd 7e98 adbd 6040 893e
00000180: 8ecf 9e3d 54a5 1f3e dbb5 1cbe b04b bbbd
00000190: 2e0c d9bd 9539 65be 468d a0bd 4f5e 07be
000001a0: 3546 473e 4b89 f7bd c67c 38be c210 4a3e
000001b0: e6a2 813c 660a d13d 90fa edbc dd03 093e
000001c0: f236 fc3d 3564 713d f374 45be 6076 a9bd
000001d0: 042a 6fbe fe13 453c f574 143d 368c 4bbd
000001e0: 9249 333e 8d9e 15be 85dc 1ebe 3e47 513e
000001f0: a037 25bd 6c3e 48be b935 a2bc fa23 643e
00000200: bac4 0dbe 777f 223d 91be a3bc 0c7a 38be
00000210: 74fa b03c d5ce 873d f9e2 b63d 056d 9fbe
00000220: 5a48 5e3e 7582 33be 0802 2fbe 6530 40bd
00000230: 18d4 283e 3556 443d dbae 493e 866c 75bc
00000240: 9a9b f63c ade2 3dbe ccd1 7cbd a17c b5bd
00000250: 1a3e 273e 848d dcbd 7646 2dbe 9afc ca3e
00000260: 49e4 ef3d 5857 7a3e de50 43bd 284a 073d
00000270: 1e63 793d 4b18 debd 5ee0 5ebd 1720 0cbe
00000280: db4d fdbd 9205 8f3b 1000 4f3e 7a0f 4bbe
00000290: ef06 2e3d a1ea d53d 393d 96bd 2005 44be
000002a0: 7d04 433e 172d 903d 2f2b 0b3e d4db 0fbe
000002b0: a092 fd3d 4f4a 7abd b4f9 36be 1225 fbbd
000002c0: 53a9 6ebd f582 a73d 0d7e f03d 33d7 91bd
000002d0: 6013 a1bd f8e1 a43c be10 663e eced 6dbc
000002e0: 5e9b 563d c53e 1f3e 28b4 51bd d1b6 a3bd
000002f0: 3d77 4ebe d653 2d3d 31d2 413e 0ad6 b43d
00000300: f80c 0a3d fcd7 e83d 9262 033e 6ba2 eebd
00000310: deed e1bd d11b 95bb a9fd debb 5040 5b3d
00000320: 100b 643e 23ea 83bc db23 f43c 305f b73d
00000330: 2c7a 093e 6e9e f7bd ab0c 853d b7fb 09be
00000340: f49d 9abd 1ec9 683d d9d2 09be d1f6 92be
00000350: 9abc 36be 2d9e 563d 7c46 84bd ddf0 2abe
00000360: 056b 40bd ca10 8bbd 7f95 2f3d 42fa 503e
00000370: 4e0a 5e3e 29cf 0e3e 10cf 1e3e 94e4 f9bc
00000380: 3799 b03d c780 4c3e c74b 86be a729 1b3d
00000390: 7133 87bd eb2b b9bd eeef 83bd 1bf9 acbe
000003a0: fad4 5f3d 8d8b 68be da01 cabc 01ae 1b3d
000003b0: 583d 50be 347a 0cbe 089d cb3c 2c79 9a3d
000003c0: 0cf9 9d3d a8ac 0abc 0de2 1abe 56b5 51be
000003d0: 4b93 8d3d 1006 cabd d826 4ebe 28fe 6dbe
000003e0: 5404 5b3e 7c21 85bd ac01 163e 4dab 6cbd
000003f0: 0d98 413e afa3 bebc 9f0c 873c a9d1 853d
0.15503109 0.028853122 -0.11790203 -0.12273035 -0.17672195 -0.04738939 -0.11933034 -0.04906378
-0.08751146 0.13950141 0.11055635 0.048500363 0.1377888 -0.060052544 0.1801905 0.22058827
-0.063888356 -0.08251375 -0.15697268 -0.011070747 -0.091785744 0.21651989 0.14977843 -0.36364838
0.12215031 -0.07488063 -0.09136265 -0.15805501 -0.17394574 0.19844806 -0.07080699 -0.15120023
-0.112589374 -0.005938457 -0.003467052 0.09749452 -0.20981002 0.2421627 0.15568818 -0.1712312
-0.01980556 0.0800479 -0.2035045 -0.095019355 -0.12350419 0.19893998 -0.0116645545 0.003142207
-0.042773012 -0.06418071 0.024508921 0.07145228 0.13850136 -0.025917223 -0.20241539 -0.11085934
0.21599314 -0.008903531 -0.04551013 -0.04422346 0.10926995 -0.025679959 -0.1051269 -0.005296771
0.07625028 -0.12327243 0.1794486 0.07713564 0.03390594 0.085782886 -0.08908999 0.089178994
0.14432612 -0.12381033 0.009813496 0.01351476 0.24981882 -0.15392722 -0.16484778 -0.13132924
-0.1408103 0.081746124 0.13009892 -0.059614073 0.09132814 0.02741129 -0.009369257 0.21984933
-0.064356126 0.18547247 0.019253885 -0.18740276 -0.15207207 -0.091833964 -0.08476351 0.26806927
0.07754432 0.15590411 -0.15303747 -0.091452956 -0.10598026 -0.22385247 -0.07839446 -0.1321957
0.19460376 -0.120867334 -0.18016347 0.19732955 0.015824746 0.102070615 -0.029050142 0.1338038
0.123151675 0.058933455 -0.19282894 -0.08274531 -0.23355871 0.012028692 0.03624435 -0.049694262
0.17508534 -0.14611264 -0.15513809 0.20437333 -0.04033625 -0.19555062 -0.019801008 0.22279349
-0.13844576 0.03967234 -0.01998833 -0.18015307 0.0216038 0.06631247 0.0893001 -0.31137863
0.21707287 -0.17530234 -0.17090619 -0.046921153 0.16487157 0.047933776 0.19695608 -0.014979487
0.030103493 -0.18543501 -0.061723515 -0.08861662 0.16332284 -0.107691795 -0.1692141 0.39645845
0.11713464 0.24447381 -0.047684543 0.033029705 0.06088554 -0.10844477 -0.054413192 -0.13684116
-0.123683654 0.0043646777 0.20214868 -0.19830123 0.04248708 0.104451425 -0.07335896 -0.1914258
0.19044681 0.0703985 0.13590692 -0.14048702 0.12381482 -0.061106022 -0.17868692 -0.1226293
-0.05826695 0.08179275 0.11742792 -0.07121124 -0.078650236 0.020127282 0.22467324 -0.014522057
0.052394263 0.15551288 -0.0511972 -0.07993854 -0.20162673 0.04231628 0.18927838 0.08829887
0.033703774 0.11369321 0.1283057 -0.116520725 -0.11031698 -0.004550435 -0.006805141 0.05352813
0.22269845 -0.016102856 0.029802253 0.089537024 0.13425511 -0.12090765 0.06496557 -0.13474928
-0.075496584 0.056832425 -0.13459338 -0.2870393 -0.17845383 0.052396942 -0.06458756 -0.16693445
-0.04697706 -0.06790312 0.04286718 0.20407966 0.21683618 0.13946213 0.15508676 -0.030504502
0.086229734 0.19971 -0.2622969 0.03788152 -0.066016085 -0.0904158 -0.06442247 -0.33783802
0.05464647 -0.22709484 -0.024659086 0.03800774 -0.20335901 -0.13718492 0.024855152 0.07542643
0.077135175 -0.008464016 -0.15125294 -0.2047933 0.069128595 -0.098644376 -0.20132005 -0.23241484
0.2138837 -0.06500527 0.14649075 -0.057780553 0.18905659 -0.02327141 0.01648551 0.0653413

conv_logvar.0.bias f4 [16]
00000000: c314 c8bd 411b 723d f729 84bd 1cf8 4b3d
00000010: 72b0 abbd e593 29bd a46e 5d3c 544f 133e
00000020: 94a1 f23d 5156 83bd 51dd 93bc 8947 a6bd
00000030: 5081 c93b dc7c b1bd 3ac8 133e a41a c53d
-0.09769585 0.059108023 -0.06453317 0.049797162 -0.08383264 -0.04140081 0.013515148 0.1438573
0.11847225 -0.06412948 -0.018049868 -0.08119113 0.0061494485 -0.08666393 0.14431849 0.09624222

decoder.0.weight f4 [16, 3, 3, 3]
00000000: 4afa 57bd 87ce 9bbd 62bf c5bd db18 16be
00000010: b297 51be 0557 b6bd f481 88bd 09ed fabd
00000020: 47e3 f1bc fc97 afbd 8ec5 1bbe 4445 77bd
00000030: 3cb8 18be 454a 47be 39ac 91bc 3d43 a6bd
00000040: bd87 fabd f399 a4bd 1df9 8ebc 6aa9 2abe
00000050: 3776 b2bd deda 30be a958 5fbe 9758 2abe
00000060: a06f cfbd b0eb 2bbe 270e bebd 0db4 a73d
00000070: 91a4 e93d 9d01 503d e259 353d 299b 503d
00000080: c502 fc3d 38da a73d 4496 e13d 301a af3d
00000090: e84b 943d fd68 e43d 3656 933d a6a9 ce3d
000000a0: a48e 153e ae5b e83d aa40 223d f68f e03d
000000b0: a6e8 1e3d 20d8 77bc 57ef b93d df9d 2e3d
000000c0: ad1c c63d 09b2 1a3e 9fd7 773d b6d6 283d
000000d0: 45c4 d53c dc33 1c3d 1bf7 ce3d 29fa 083e
000000e0: 7f85 c23d f8b2 153e fe07 0c3e 1cbc 1d3e
000000f0: 9685 dd3c 7a2a 143e 24b8 b73d 563f a93d
00000100: 2983 cb3d 296b a63d 538e 143e 8f42 2f3e
00000110: 6b0e 1b3e 0bbb 9e3d c94a 193e feb1 a53d
00000120: 8b75 b03d 27b3 0d3e e4d2 b23d f6b9 113e
00000130: 3981 ae3d 17a3 1a3e 2047 aa3d cd13 113e
00000140: ce0c 683d 0448 27bd e766 82bd e3e0 73bd
00000150: bd07 93bb 60bd babd e783 79bd 0fa7 27bd
00000160: fca4 8abd a6fc 35bd 670d 1ebd ee32 9cbd
00000170: e46b 1abd 4c8d 3fbd 8c89 e6bd 29c5 8cbd
00000180: 9e90 1dbd a588 95bd a87e 0cbd f8ae 4abd
00000190: bcfe b0bd 89a8 55bd 2a40 b5bd cf2a c9bd
000001a0: 5ebb c5bd 9cde 63bd 9ccc bebd 9c13 63bd
000001b0: 6dd5 963d c6fd f43d bd25 a53d 0228 073e
000001c0: cdd8 3b3e 578b d23d 005c a03d 83fe f53d
000001d0: 2bc0 a43d 816d 933d 2cfa 083e 73ee 973d
000001e0: c031 073e cb20 2d3e 3e3f 073e 43f0 953d
000001f0: fe66 043e 77b8 913d 1bcb 993d 28b0 0b3e
00000200: d935 a03d 54c3 773d 4319 8c3d f230 0e3e
00000210: 1e62 a13d 0c6e 0d3e 51d0 943d 37be 73bb
00000220: 8d7e 533d 72ce 1a3d 0bff 653d 0681 b33d
00000230: 8cbb 093d ec2e 173d b908 613d cce0 1e3d
00000240: d7b7 063d e030 863d 9274 4c3d 12f4 8e3d
00000250: c38e 1a3d 7531 893d d485 2a3d cf2e 853d
00000260: d891 0b3d c22c 6c3c 133b 533c 47f8 febb
00000270: 85b1 433d a2a1 98bb e575 133d d748 0a3c
00000280: 778a bb3b 8093 b53b d2bb b33d 7705 253e
00000290: 39cd bb3c b6a5 363e 78a7 7d3e 10cf 0a3e
000002a0: 43d6 093e f133 3d3e 465f 0c3e d27d db3d
000002b0: da5e 3f3e 1e27 e33d 2d7a 383e 0aa9 6b3e
000002c0: 5f6b 413e 4bcd 643d f1fb d93d b26f dc3d
000002d0: 6e52 a73d 9194 0c3e 2bce 973c e824 283e
000002e0: 254e 683e 8212 203e b668 a33d 41b2 a43d
000002f0: 3271 323d d0a4 293a 9384 87ba 6493 eb3b
00000300: 24be 933b 6bee b8bb 5705 db3c 9725 a73c
00000310: b23f 003c d21b f13a b14a 963b bc2e b2bb
00000320: 3f07 b0ba 676d 45bb becb 96bb 1b56 f5bb
00000330: 4302 98b9 971a 89ba c2d5 853a 94eb 5fbd
00000340: 5516 7dbc 51cb 50bc 5b79 79bc 6331 88bc
00000350: 9162 5bbc 9559 20bd 57b9 32bc da11 c9bc
00000360: 08ed 8ebd dbd6 05bc 7d57 4abd 2792 f0bd
00000370: 44b5 2938 4a7a 3bbc 2596 63bd 9bc4 98bd
00000380: cf6c 5dbd 2ad3 59bd 6d12 01bd 20fb 65bd
00000390: ea99 ecbd 15e3 5abb b5dd f0bd 5486 5dbd
000003a0: 307d e9bd bef1 78bd a431 03be 5a53 42be
000003b0: 7acc f2bd cf68 2cbe dc79 80be 3392 4cbe
000003c0: 80d0 01be 43a1 45be c87f eebd 383c c73c
000003d0: 99f7 313d 0d1d 003d c13b a0bc b55d a13d
000003e0: e07d 4c3d 7b58 043d 31e1 363d 57cf c63c
000003f0: f2ba c03c 0e24 483d 20df 253d 0882 353d
-0.05272893 -0.07607751 -0.09655644 -0.14657919 -0.20468023 -0.089033164 -0.066654116 -0.12252242
-0.02952732 -0.085739106 -0.1521208 -0.06036879 -0.1491403 -0.19461925 -0.017782317 -0.081182934
-0.12232921 -0.08037176 -0.01745277 -0.16666189 -0.08713954 -0.17270991 -0.21811165 -0.16635357
-0.10128713 -0.16789126 -0.09280043 0.08188639 0.11408342 0.05078279 0.044275172 0.050929222
0.12305216 0.08195919 0.11014989 0.08549917 0.072410405 0.111528374 0.07194178 0.100909516
0.14605194 0.113456115 0.03961245 0.10964958 0.03879609 -0.015127212 0.090788536 0.042631026
0.09673438 0.15106978 0.060508367 0.04122039 0.026094565 0.038135394 0.101057254 0.13376679
0.094981186 0.14619052 0.13674924 0.1540379 0.027041238 0.14469329 0.08970669 0.082640335
0.09937126 0.08125908 0.14507417 0.17115234 0.15142219 0.07750519 0.14969935 0.0809059
0.086161695 0.13837872 0.087316304 0.14231095 0.08520741 0.15101276 0.08314347 0.1416771
0.056652837 -0.040840164 -0.06367283 -0.05954064 -0.0044870065 -0.09118152 -0.060916808 -0.040930804
-0.067697495 -0.044430397 -0.038587 -0.076269016 -0.03770055 -0.04676561 -0.11256704 -0.06873543
-0.038467996 -0.073014535 -0.034300476 -0.04948327 -0.08642337 -0.05216268 -0.08850129 -0.09822618
-0.09654878 -0.05563222 -0.0931637 -0.055438623 0.073649265 0.11962466 0.08063839 0.13198856
0.18344422 0.10280483 0.078300476 0.12011435 0.08044466 0.071986206 0.13376683 0.074185275
0.13202572 0.16907041 0.13207719 0.07321217 0.12929913 0.07115262 0.075094424 0.13641417
0.078227706 0.060489014 0.06840756 0.13885859 0.078800425 0.13811511 0.07266296 -0.0037192234
0.05163436 0.037794538 0.05615143 0.08764844 0.033626124 0.036909983 0.05493996 0.0387886
0.032890167 0.06552291 0.049915858 0.069801465 0.037733804 0.06698886 0.041631535 0.06503069
0.034074634 0.014414968 0.012892502 -0.007781062 0.047776718 -0.00465794 0.036001105 0.008440218
0.0057232934 0.005541265 0.08776058 0.16115366 0.022925006 0.17836651 0.24770916 0.1355555
0.1346064 0.18476845 0.13708219 0.10717358 0.18688527 0.110914454 0.18015356 0.23013702
0.18888615 0.055859845 0.10643757 0.10763492 0.08170019 0.13728549 0.018530926 0.16420329
0.2268606 0.1563206 0.079789564 0.08041812 0.043564983 0.00064713974 -0.0010339193 0.007189201
0.0045087505 -0.005643656 0.026735945 0.020403666 0.007827686 0.0018395132 0.0045865406 -0.0054377
-0.0013429894 -0.0030125023 -0.0046019247 -0.007487071 -0.00028993384 -0.0010460195 0.00102108 -0.054668024
-0.015447219 -0.012743787 -0.015226687 -0.016625112 -0.013390199 -0.039147932 -0.010908446 -0.024544645
-0.06978804 -0.008168901 -0.04939984 -0.11746626 4.0461557e-05 -0.01144273 -0.05556311 -0.074593745
-0.054058846 -0.053179897 -0.031511713 -0.056147695 -0.11552794 -0.0033399512 -0.11761037 -0.054083183
-0.11400831 -0.06077742 -0.12811905 -0.18977109 -0.11855407 -0.16836856 -0.2509297 -0.19977646
-0.12677193 -0.19299798 -0.11645466 0.024320707 0.04344902 0.031277705 -0.019559743 0.07879201
0.04992473 0.032310944 0.044648353 0.02426879 0.023526642 0.04886251 0.04049599 0.04431346

decoder.0.bias f4 [3]
00000000: 84b6 053d af1c adbd b71a 7abd
0.032644764 -0.084527366 -0.061060634
